demo/res15-narrow-softmax.pt (torch_old, 181595 bytes, 42 tensors)

conv0.weight f4 [19, 1, 3, 3]
0	0xbc8d5ce3	-0.017256206
1	0x3d52777f	0.05138349
2	0xbf08d1ad	-0.5344494
3	0xbe2124c5	-0.15736683
4	0xbd19669a	-0.037451364
5	0x3ca31403	0.019907003
6	0x3ddabc9e	0.10680507
7	0x3e6dc28b	0.23218744
8	0x3e882989	0.2659419
9	0x3be661ef	0.0070307176
10	0xba2234f6	-0.00061877014
11	0xbe88b039	-0.26696947
12	0xbf0add3d	-0.5424383
13	0xbeddb76b	-0.43304
14	0xbec842a0	-0.3911333
15	0x3f0960bc	0.5366323
16	0x3ef5af0e	0.4798512
17	0x3f1f79ac	0.6229503
18	0xbe559b02	-0.20859912
19	0x3c506f42	0.012721838
20	0x3de0fa71	0.10985268
21	0x3e89bbf5	0.26901212
22	0x3ce88734	0.028384782
23	0x3e57c0e8	0.21069682
24	0x3d89dcd1	0.067315705
25	0xbde048a0	-0.10951352
26	0x3e4ac2c1	0.19800855
27	0x3cb62232	0.022233102
28	0xbdf3cc1a	-0.11904164
29	0xbd0c6339	-0.034274314
30	0xbd4e7b08	-0.0504103
31	0x3da0a523	0.07843997
32	0xbe51bd02	-0.20482257
33	0xbd9f86f6	-0.07789414
34	0xbdf554b1	-0.11979044
35	0xbe7cb3c8	-0.24677956
36	0xbdbe8e38	-0.0930447
37	0x3e7dab22	0.24772313
38	0x3da9e0e1	0.08294845
39	0x3d970f73	0.073759936
40	0xbdd87671	-0.10569466
41	0xbc92c810	-0.017917663
42	0x3dd3f8c8	0.10350186
43	0xbd9b8e77	-0.075955324
44	0xbe031a97	-0.12803112
45	0xbf8bd880	-1.0925446
46	0x3d94b06f	0.072602145
47	0x3dbff4ab	0.093728386
48	0x3d726007	0.05917361
49	0xbcd1f493	-0.025629317
50	0x3e3764cb	0.17909543
51	0x3f76eb09	0.96452385
52	0x3e33f01e	0.17572066
53	0xbe42211a	-0.1895794
54	0x3e94015c	0.28907287
55	0xbf0575bd	-0.5213278
56	0x3e5e99f9	0.21738423
57	0xbdd38c8e	-0.10329543
58	0x3cbf75c2	0.023371581
59	0xbe6587b7	-0.22415052
60	0x3d506478	0.050877064
61	0x3ea88dd9	0.3292072
62	0xbeb00a78	-0.34382987
63	0xbd26bbee	-0.040706567
64	0x3ea7e132	0.32788998
65	0xbe309e01	-0.17247774
66	0x3d0757d4	0.033042744
67	0x3cbfee97	0.023429198
68	0xbc7fd43b	-0.0156145645
69	0x3e5cbfd4	0.21557552
70	0xbe519c7a	-0.20469847
71	0x3dac83da	0.08423586
72	0x3ed76e1a	0.42076188
73	0x3e8e0c43	0.2774373
74	0x3ebe4ae8	0.37166524
75	0xbc27aa1b	-0.010233427
76	0xbd4fa205	-0.050691623
77	0xbd3ba94b	-0.045815747
78	0xbeb01d77	-0.3439748
79	0xbe1fee9a	-0.15618363
80	0xbecb2e6a	-0.3968385
81	0x3e242559	0.16029872
82	0xbd5a3e61	-0.053282145
83	0xbe856d6c	-0.26060045
84	0x3e03dbea	0.1287686
85	0xbd602f75	-0.05473276
86	0xbdacc5ec	-0.08436188
87	0xbe07ae30	-0.13250041
88	0x3e46f92e	0.19430992
89	0x3d7f77bd	0.06237005
90	0x3d490a93	0.04908235
91	0x3d5c18a1	0.053734425
92	0x3e45b3c1	0.19306852
93	0x3cda1bc4	0.026624568
94	0x3c324d68	0.010882713
95	0x3c8489c4	0.016178973
96	0x3ce67b3f	0.02813494
97	0x3c9f6cb5	0.019461015
98	0xbe6d0f38	-0.23150337
99	0xbef5fdf6	-0.4804532
100	0x3f036ebb	0.51340836
101	0x3daea5ab	0.085276924
102	0xbd1d07c1	-0.038337473
103	0xbdbf72c0	-0.09348059
104	0xbe2d4eb9	-0.16924562
105	0x3edd565d	0.43229952
106	0xbea8d6a2	-0.32976252
107	0xbe6fd25f	-0.23420094
108	0xbd2b6e5a	-0.041853286
109	0x3e9928da	0.2991398
110	0xbe33f93f	-0.17575549
111	0x3e67d159	0.22638454
112	0xbd8a3eb5	-0.06750242
113	0x3e3d9c5f	0.18516682
114	0x3e84a199	0.2590454
115	0xbecae280	-0.3962593
116	0x3c87ddbc	0.016585223
117	0xbc369943	-0.011144939
118	0x3e25ddfc	0.16197962
119	0x3deef100	0.11667061
120	0x3c005292	0.007832186
121	0x3c220027	0.009887732
122	0xbd953e6e	-0.07287298
123	0x3dae46a9	0.08509571
124	0xbe12e30c	-0.14344424
125	0xbe813bd7	-0.25240967
126	0x3f13448b	0.57526463
127	0xbe8fcad2	-0.28084427
128	0xbcd656f1	-0.026164504
129	0xbd59d0ac	-0.05317752
130	0x3dbdeecf	0.09274065
131	0xbd168b6c	-0.036754057
132	0xbf04740a	-0.5173956
133	0x3e99faa3	0.30074033
134	0x3ddc957a	0.10770698
135	0xbdc1ed32	-0.094690695
136	0xbe157f97	-0.14599453
137	0xbc8930de	-0.016746935
138	0x3e061765	0.13094862
139	0xbbf013b0	-0.0073265657
140	0x3df49017	0.119415455
141	0x3e36e37c	0.17860216
142	0x3eaf6754	0.3425852
143	0x3d913687	0.070904784
144	0x3d850800	0.064956665
145	0x3f017c69	0.5058046
146	0x3f382b12	0.7194072
147	0xbd10d413	-0.0353585
148	0xbdccb1da	-0.0999486
149	0xbc0c7c6f	-0.008574589
150	0xbe535142	-0.20636466
151	0xbf106854	-0.5640919
152	0xbf015aea	-0.5052935
153	0x3e3410e0	0.17584562
154	0x3c92f93a	0.017941106
155	0xbf06d266	-0.5266479
156	0x3e01b06f	0.1266496
157	0xbcbdd4a1	-0.023172678
158	0x3db367e2	0.087600484
159	0xbe38c628	-0.1804434
160	0x3da8cbd8	0.08242005
161	0x3ecb64bb	0.3972529
162	0xbe450b07	-0.19242488
163	0xbed64cd4	-0.4185549
164	0xbda76210	-0.08173001
165	0xbdd01ea2	-0.10162093
166	0x3cbeff6b	0.023315152
167	0x3e3af551	0.18257643
168	0x3be74f07	0.0070589813
169	0x3e8fee2e	0.28111404
170	0x3ecd0d73	0.40049323

bn1.running_mean f4 [19]
0	0x3e43ecab	0.1913325
1	0x3e9f36e8	0.31096578
2	0x3ed941be	0.4243297
3	0x3f15f0ee	0.58570755
4	0x3e9bf4bc	0.30460155
5	0x3e780c34	0.24223405
6	0x3efcbb30	0.49361563
7	0x3eb47b29	0.35250214
8	0x3ed913be	0.42397875
9	0x3f1ff7c7	0.62487453
10	0x3e773de8	0.24144709
11	0x3f157122	0.5837575
12	0x3e8f845f	0.2803068
13	0x3e49b972	0.19699648
14	0x3e02982e	0.12753364
15	0x3e2f8d74	0.17143804
16	0x3ebdae6d	0.3704714
17	0x3f2ce30f	0.67533964
18	0x3e8e53b6	0.2779824

bn1.running_var f4 [19]
0	0x3f80eb84	1.0071874
1	0x4015f6cd	2.3431885
2	0x3fee13fb	1.8599848
3	0x407eef5c	3.9833593
4	0x3f4aa283	0.79154223
5	0x3fd16f05	1.6362005
6	0x408c260d	4.379645
7	0x3fad3434	1.3531556
8	0x3fdbead3	1.7181038
9	0x4048253b	3.1272724
10	0x3f9562af	1.1670741
11	0x400c1d5d	2.1892922
12	0x3fde2a18	1.7356596
13	0x3f12a8d8	0.57288885
14	0x3f2e0927	0.67982715
15	0x3f819577	1.0123738
16	0x3fcee7ce	1.6164491
17	0x40b9b098	5.802807
18	0x3f92bc12	1.1463645

conv1.weight f4 [19, 19, 3, 3]
0	0xbe1897f8	-0.14901721
1	0x3d92648c	0.07148084
2	0xbdb50322	-0.08838488
3	0xbdef4f8a	-0.11685093
4	0x3bae826f	0.0053256075
5	0xbd7e3ce7	-0.0620698
6	0x3d141cc1	0.036160234
7	0x3d5775f2	0.052602716
8	0xbdd56bd7	-0.104209594
9	0xba8c76e5	-0.0010716586
10	0x3dbb1bf2	0.091361895
11	0x3c50a8d3	0.012735563
12	0xb94d62d3	-0.00019587138
13	0x3d417720	0.047232747
14	0x3d5e022a	0.054201283
15	0x3d1b48d4	0.03791125
16	0xbd5fca9a	-0.054636575
17	0xbd47e370	-0.048800886
18	0xbd964b16	-0.0733854
19	0x3b883e4b	0.0041578165
20	0x3ddca24e	0.10773145
21	0xbd2f3062	-0.04277075
22	0x3d157f4f	0.036498364
23	0xbd057c47	-0.032589223
24	0x3d800efb	0.06252857
25	0xbd3e7a14	-0.04650314
26	0x3d7e8a89	0.062143836
27	0xbdf0bafc	-0.117544144
28	0x3a4fea3e	0.0007931328
29	0x3ceab983	0.028652912
30	0x3de39e8e	0.11114226
31	0xbc9032d2	-0.017602358
32	0xbd17d4da	-0.037068225
33	0xbd40ee17	-0.04710206
34	0x3dce8b5b	0.10085174
35	0xbc99811d	-0.018738324
36	0x3d65d8d1	0.056114975
37	0x3d2a8c6f	0.041637834
38	0xbd1ea315	-0.038729746
39	0x3c37ce20	0.011218578
40	0x3c7eb67c	0.015546437
41	0xbb38ddf0	-0.0028208457
42	0xbcbaba55	-0.022793928
43	0xbc24d984	-0.010061625
44	0x3ba2c16a	0.0049669044
45	0xbe0ae92f	-0.13565515
46	0xbd0d963e	-0.03456711
47	0xbdb48cc5	-0.08815912
48	0xbe5ff580	-0.21870995
49	0x3d15a27a	0.036531903
50	0xbda806d8	-0.0820443
51	0x3cc13173	0.02358315
52	0xbb9e271f	-0.004826441
53	0xbe82acc5	-0.25522438
54	0x3d08c12e	0.033387356
55	0xbe2c3e39	-0.16820611
56	0xbd539eb3	-0.05166502
57	0xbd4460d1	-0.047943894
58	0xbddce611	-0.10786069
59	0xbd9cc132	-0.076540366
60	0xbd0a93ce	-0.033832364
61	0xbd4bbd3a	-0.049741007
62	0xbd1c38e1	-0.03814018
63	0x3d16d17c	0.036820874
64	0xbcccfd0b	-0.025023004
65	0xbe077194	-0.1322692
66	0xbd36b3a3	-0.04460491
67	0xbd1edfd0	-0.038787663
68	0xbd85c7f1	-0.065322764
69	0x3c590315	0.013245364
70	0x3c5ccb86	0.013476258
71	0xbd69ee0c	-0.057111785
72	0xbc91dd8d	-0.017805839
73	0x3d791fff	0.06082153
74	0x3cc83a9d	0.024442011
75	0x3cf12db0	0.02944073
76	0xbba89b3f	-0.00514546
77	0x3d4ab7dd	0.049491752
78	0xbde2956f	-0.110636584
79	0xbd196a32	-0.03745479
80	0xbc55195e	-0.013006536
81	0x3d1ad4dd	0.03780066
82	0xbd9fbc0f	-0.07799541
83	0xbcccd90e	-0.025005843
84	0xbd0e79f9	-0.03478429
85	0xbe0992aa	-0.13434854
86	0x3d67ecff	0.0566225
87	0xbd82aaae	-0.06380211
88	0xbe0e495d	-0.13895173
89	0xbcdc0c49	-0.026861327
90	0xbce554b3	-0.02799449
91	0x3ca4aed8	0.020102903
92	0x3d4d2b18	0.050089926
93	0xbcb8550c	-0.022501491
94	0xbcb3742b	-0.02190598
95	0xbd17ca43	-0.037058126
96	0xbc4d09d8	-0.012514554
97	0x3d820cd9	0.06350107
98	0xbca9b68e	-0.020716932
99	0xbe14ceb6	-0.14531979
100	0x3d5c3096	0.053757273
101	0xbdc73301	-0.09726525
102	0xbd04132a	-0.03224484
103	0xbca2f99e	-0.019894417
104	0xbd00e70c	-0.031470343
105	0x3d93f013	0.07223525
106	0xbdd7e9c5	-0.10542635
107	0x3c960c7f	0.018316505
108	0x3c12d41c	0.008961704
109	0x3d6c4f4c	0.05769281
110	0xbe3c01de	-0.18360087
111	0xbbbc29fd	-0.00574231
112	0x3e042406	0.12904367
113	0xbd71c35d	-0.059024204
114	0x3dd49450	0.10379851
115	0x3cb77383	0.022393947
116	0x3cf9aa22	0.030476633
117	0xbd793485	-0.060841102
118	0xbd8c3c08	-0.068473876
119	0xbe17dba5	-0.14829881
120	0x3af64d30	0.0018791314
121	0xbce7cf12	-0.028296981
122	0xbd9aa3f6	-0.07550804
123	0xbd99f0e5	-0.0751665
124	0xbdce1f71	-0.10064591
125	0xbcaf2c93	-0.02138356
126	0x39923885	0.000278894
127	0x3da3e9f4	0.080036074
128	0xbdb53e65	-0.088497914
129	0x3d9fbac0	0.077992916
130	0x3d326119	0.04354963
131	0xbdd9ab66	-0.10628395
132	0x3c073a03	0.008253577
133	0x3cef049e	0.029177006
134	0xbe1bfff7	-0.15234362
135	0xbd0a0482	-0.033695705
136	0x3d5ca00a	0.053863563
137	0x3daefeec	0.08544716
138	0xbd88c5dd	-0.066783644
139	0xbd17815e	-0.03698861
140	0x3b429748	0.0029692221
141	0xbd7ee069	-0.062225733
142	0xbd0d192b	-0.03444783
143	0x3d3f8ccf	0.046765145
144	0x3daea223	0.08527019
145	0xbcc91a75	-0.024548749
146	0xbcdca84a	-0.026935715
147	0x3df94e2f	0.121731155
148	0x3d8a8b19	0.06764812
149	0x3c488ea6	0.012241041
150	0xbd45c456	-0.048282944
151	0xbdfbddba	-0.1229815
152	0xbca4c645	-0.020114074
153	0x3d587ed2	0.05285532
154	0x3dfb1c9e	0.12261318
155	0x3d378799	0.04480705
156	0x3ca64ae7	0.020299388
157	0x3d27ba4a	0.040949143
158	0xbcf9521f	-0.030434666
159	0xbdc4fa48	-0.0961805
160	0xbddf7b1f	-0.10912155
161	0x3d84e293	0.06488528
162	0xbdccb312	-0.099950925
163	0xbc2b3c2b	-0.010451357
164	0xbcd184b4	-0.025575973
165	0x3e21ffcd	0.15820237
166	0x3e092482	0.13392833
167	0xbd9f1775	-0.07768146
168	0x3e83c5bf	0.25736806
169	0xbd9c92c7	-0.07645183
170	0xbe64ef9d	-0.2235703
171	0x3df8aa27	0.12141829
172	0x3d906bc9	0.070518084
173	0xbe13f4e2	-0.14448884
174	0x3c548580	0.012971282
175	0x3d28b8f2	0.041192003
176	0xbbb9a691	-0.005665608
177	0xbdcf8bcf	-0.10134088
178	0x3d21c53f	0.03949475
179	0xbd42b315	-0.047534067
180	0x3c4bc7fd	0.012437818
181	0xbd522cb6	-0.05131217
182	0x3c816a71	0.015797826
183	0xbcae077b	-0.021243801
184	0x3d6dff7c	0.058104977
185	0xbc0d04c2	-0.008607091
186	0x3d453fed	0.048156668
187	0x3d0472e2	0.032336123
188	0x3d9a62e4	0.07538393
189	0xbe21ca08	-0.15799725
190	0xbd4db8a4	-0.050224915
191	0xbd3a5871	-0.0454945
192	0xbd35626f	-0.044283327
193	0x3dfdf700	0.12400627
194	0x3d5460c7	0.051850107
195	0x3cba5af4	0.022748448
196	0x3d85fd3e	0.06542443
197	0xbdfc4bd8	-0.123191535
198	0x3d1f04a8	0.0388228
199	0xbcb82444	-0.02247823
200	0x3d97ff2b	0.07421716
201	0xbcc24487	-0.023714317
202	0xbd6fdac4	-0.05855824
203	0xbd1ca38d	-0.03824191
204	0xbdae40f4	-0.085084826
205	0xbdaf495e	-0.085589156
206	0x3d82356a	0.06357844
207	0x3c3d0a0f	0.011538043
208	0xbd5136c2	-0.05107761
209	0x3cfc5b69	0.030805307
210	0xbd4ad189	-0.049516235
211	0xbce63b86	-0.028104555
212	0xbc232c67	-0.009959317
213	0xba2b16cb	-0.0006526529
214	0x3c12cdb5	0.008960177
215	0xbd1d45a1	-0.03839648
216	0x3e736e15	0.23772462
217	0xbe2adc3a	-0.16685572
218	0xbd91f8da	-0.07127543
219	0xbab378ee	-0.0013692656
220	0xbd0ea413	-0.034824442
221	0xbe095d55	-0.1341451
222	0x3bd6688b	0.006543224
223	0xbdfdb316	-0.123876736
224	0x3c06d279	0.0082288915
225	0xbc386697	-0.011254928
226	0x3dad32a1	0.08456922
227	0x3b69a87b	0.00356534
228	0xbd746409	-0.059665713
229	0x3c3896cc	0.0112664215
230	0x3d7bf997	0.061517324
231	0xbe6b49d3	-0.2297738
232	0x3cde1f82	0.027114633
233	0x3deef72b	0.11668237
234	0xbdce9504	-0.10087016
235	0xbd0ab8bf	-0.033867594
236	0x3c3ca3a1	0.011513622
237	0xbd9ab8e6	-0.07554798
238	0x3d818be2	0.06325509
239	0xbd98e2cd	-0.07465134
240	0xbd89d918	-0.067308605
241	0x3d91cfb1	0.07119692
242	0xbab8175b	-0.0014045046
243	0xbe19c516	-0.15016589
244	0xbe38fddb	-0.18065588
245	0xbdea41fe	-0.11438368
246	0xbd9c0a77	-0.076191835
247	0xbe1c6951	-0.1527455
248	0xbcc2c58e	-0.023775842
249	0xbcad754d	-0.021174097
250	0xbe35a4fc	-0.17738718
251	0xbd9c1c6d	-0.07622609
252	0xbc15aea8	-0.00913588
253	0x3bbfcf0e	0.0058535403
254	0xbd8249c1	-0.06361724
255	0xbdb66e30	-0.08907735

bn2.running_mean f4 [19]
0	0x3f73ee72	0.95285714
1	0x3f14a42a	0.58062994
2	0x3f27628e	0.6538476
3	0x3f9d52cc	1.2290893
4	0x3ec81228	0.39076352
5	0x3f4974d4	0.7869389
6	0x3f44d7c6	0.76891744
7	0x3ec0fe81	0.3769417
8	0x3f5ba91b	0.8580491
9	0x3f984bbd	1.1898113
10	0x3e7ce129	0.24695267
11	0x3f689afe	0.908615
12	0x3f4d42fe	0.80180347
13	0x3eaad0a0	0.33362293
14	0x3f1cc6f1	0.6124106
15	0x3f157be2	0.58392155
16	0x3fa76c89	1.3079997
17	0x3f37009f	0.7148532
18	0x3f8d2262	1.1026118

bn2.running_var f4 [19]
0	0x3f7e386b	0.99304837
1	0x400c7825	2.194833
2	0x40422d0b	3.0339992
3	0x400d8333	2.2111328
4	0x3e9f7a2f	0.31147906
5	0x40b03bbc	5.507292
6	0x40806660	4.012497
7	0x3f08e4c8	0.5347409
8	0x3f56785d	0.8377741
9	0x3ee04664	0.43803704
10	0x3ebef726	0.37297934
11	0x3fc9e293	1.577227
12	0x409c7be3	4.890123
13	0x3f3822a6	0.7192787
14	0x402d0499	2.7034056
15	0x3f791f8a	0.9731375
16	0x40be952b	5.955709
17	0x3ed4d6ef	0.4157023
18	0x414d2438	12.821342

conv2.weight f4 [19, 19, 3, 3]
0	0xbdbf6da1	-0.09347082
1	0xbd8d5458	-0.06900853
2	0x3dda0de6	0.10647182
3	0xbdfc7448	-0.123268664
4	0x3d54bd08	0.051938087
5	0x3d720582	0.059087284
6	0xbd9c716f	-0.07638823
7	0x3d7e0363	0.06201495
8	0x3de1dc54	0.110283524
9	0xbca2874b	-0.019839903
10	0x3a6f4246	0.0009127002
11	0x3de1ae45	0.110195674
12	0xbd493552	-0.049123116
13	0x3df4a755	0.119459786
14	0x3c86aa07	0.016438497
15	0x3d073184	0.033006206
16	0x3e16bbdd	0.14720102
17	0xbd11fb4f	-0.035640057
18	0xbcd19671	-0.025584431
19	0xbdf7906c	-0.12088093
20	0x3da1cd50	0.079004884
21	0x3d72d531	0.059285346
22	0xbd8af9e0	-0.06785941
23	0xbd358e3a	-0.04432509
24	0xbc940bc1	-0.018072011
25	0xbc89c2e9	-0.016816573
26	0xbc9046df	-0.017611919
27	0x3d8520ec	0.0650042
28	0xbd82e0e3	-0.0639055
29	0x3cb3c1e7	0.021943046
30	0x3c34c33d	0.011032877
31	0xbdb51b10	-0.088430524
32	0xbd2ca29f	-0.042147275
33	0x3d6fa3d5	0.05850585
34	0x3b244f15	0.002507155
35	0x3c8dc79e	0.017307099
36	0xbe22dffd	-0.15905757
37	0x3c44b832	0.012006806
38	0xbd8370f2	-0.06418027
39	0xbe1206d9	-0.14260425
40	0xbda3149f	-0.079629175
41	0xbd90ea81	-0.07075978
42	0xbdc731fa	-0.09726329
43	0xbe075225	-0.1321493
44	0xbe1dee65	-0.15422972
45	0xbe102b35	-0.14078982
46	0xbe431fb7	-0.19055067
47	0xbdb9ddda	-0.09075518
48	0xbdf834bd	-0.12119434
49	0xbe1ff852	-0.1562207
50	0xbd9c4846	-0.076309726
51	0xbdd53173	-0.10409822
52	0xbe528e3b	-0.20562069
53	0xbc0e5162	-0.008686395
54	0xbd89394b	-0.06700381
55	0xbdd862a6	-0.10565691
56	0xbdc445de	-0.095836386
57	0xbde84cee	-0.11342798
58	0xbd1b6f7f	-0.037948128
59	0xbd7bc391	-0.061465804
60	0xbc0d283b	-0.008615549
61	0xbd69f1d5	-0.057115395
62	0xbdbee14a	-0.09320314
63	0xbbfe8a0b	-0.007767921
64	0x3dcca87e	0.09993075
65	0xbd57f20c	-0.05272107
66	0xbc0e7c0a	-0.008696565
67	0xb91a88c0	-0.00014737528
68	0xbdf9203e	-0.12164353
69	0x3de23858	0.11045903
70	0x3c698994	0.014253993
71	0xbd7e2279	-0.062044594
72	0xbd3b592a	-0.04573933
73	0x3cd8b0e7	0.026451541
74	0xbde4626f	-0.11151587
75	0xbdf774ea	-0.120828465
76	0xbd273323	-0.040820252
77	0xbd513f55	-0.05108579
78	0xbce681b1	-0.028138014
79	0xbdb1366d	-0.08652959
80	0xbdab1338	-0.08353275
81	0xbd96ed02	-0.073694244
82	0xbdf3e0d4	-0.11908117
83	0xbe2bdd9e	-0.16783759
84	0xbe05a406	-0.13050851
85	0xbd36e41c	-0.044651136
86	0xbe1c54d3	-0.15266733
87	0xbd1c833a	-0.038211085
88	0xbd81ed64	-0.06344107
89	0xbe2ff094	-0.17181617
90	0xbd96189e	-0.07328914
91	0x3ca22c6d	0.019796574
92	0xbcf068ed	-0.029346908
93	0xbcab3fa5	-0.020904372
94	0xbbc544e9	-0.0060201776
95	0x38906048	6.884389e-05
96	0xbd811539	-0.06302876
97	0xbc71b031	-0.01475148
98	0x3bacbd47	0.005271587
99	0xbd78faec	-0.060786173
100	0x3d8ed0b0	0.06973398
101	0x3dd63a3e	0.104603276
102	0xbe1fa870	-0.15591598
103	0xbc5f3212	-0.013622778
104	0x3d0efea6	0.03491082
105	0xbdae2f05	-0.08505062
106	0xbb457f6c	-0.0030135764
107	0x3d85bc10	0.06530011
108	0x3d447b84	0.047969356
109	0xbda39d9d	-0.07989047
110	0x3c0c9577	0.008580557
111	0xbd804d92	-0.06264795
112	0xbd85bf18	-0.06530589
113	0x3d2295aa	0.039693512
114	0xbbbd1777	-0.0057706195
115	0xbdce92d3	-0.10086598
116	0xbce126ac	-0.02748426
117	0x3d55dece	0.052214436
118	0xbdde16bf	-0.10844182
119	0xbda80629	-0.082043
120	0xbd91f49b	-0.07126733
121	0x3dde3931	0.10850752
122	0x3c8b75bf	0.01702392
123	0xbd6bb33c	-0.057543978
124	0xbe09bfa0	-0.13452005
125	0x3d7b5d24	0.061368123
126	0x3e103c45	0.14085491
127	0x3c96f929	0.018429356
128	0x3baa0857	0.0051889825
129	0x3d8a8428	0.06763488
130	0x3e1a4f2c	0.15069264
131	0xbb7c1c34	-0.0038468959
132	0x3d1a48da	0.037667133
133	0x3c1ec7c6	0.009691184
134	0xbd8c8d56	-0.06862895
135	0xbc94bbf6	-0.018156033
136	0x3db59a2d	0.08867297
137	0xbd6e250c	-0.0581408
138	0xbce8f5d8	-0.02843754
139	0xbd84ed00	-0.06490517
140	0x3a6d698b	0.00090565596
141	0xbd441b99	-0.04787788
142	0xbc32c2c2	-0.010910692
143	0x3d78c812	0.060737677
144	0x3dbbbad0	0.09166491
145	0x3d33a663	0.04385985
146	0xbe27e83e	-0.16397187
147	0xbd397ab1	-0.045283023
148	0xbcc3509c	-0.023842148
149	0xbe68907b	-0.22711365
150	0xbcec2e79	-0.028830754
151	0x3d6dc598	0.05804977
152	0xbe491868	-0.19638216
153	0xbbe35389	-0.0069374484
154	0xbde75dc8	-0.11297184
155	0xbde0f2e1	-0.109838255
156	0xbc73ad9a	-0.014872933
157	0xbdbbd4b6	-0.09171431
158	0x3d023736	0.031790935
159	0xbd834eeb	-0.06411537
160	0xbdc4f145	-0.09616331
161	0x3c9127f8	0.017719254
162	0x3d392488	0.045200855
163	0x3d24feb1	0.040281955
164	0x3c226808	0.009912498
165	0x3c79a2cc	0.015236568
166	0x3dedebba	0.11617227
167	0x3b35e42a	0.0027754405
168	0x3d32264e	0.04349356
169	0x3d7b1e1b	0.061308008
170	0x3be46347	0.0069698426
171	0xbdcee4e0	-0.10102248
172	0x3da67ca3	0.08129241
173	0x3ca0f4be	0.019647952
174	0xbd50a502	-0.050938614
175	0x3d3d56cb	0.04622535
176	0x3cc66fd6	0.02422325
177	0xbc1e2584	-0.009652499
178	0x3c478cac	0.012179535
179	0x3d7ec697	0.06220111
180	0xbcc48f7b	-0.023994198
181	0x3dab0a6f	0.083515994
182	0x3d8810ee	0.06643854
183	0x3e11f15c	0.14252228
184	0x3e1f8fee	0.15582249
185	0x3e03acd2	0.12858894
186	0x3d6a3bc8	0.057185918
187	0x3dd14154	0.102175385
188	0x3cad12ac	0.021127068
189	0xbdc37095	-0.09542958
190	0x3c8685b3	0.016421175
191	0x3d3ad2bd	0.045611132
192	0x3d2f3440	0.04277444
193	0xbd7aafdd	-0.061202873
194	0xbd308fa8	-0.04310575
195	0xbc2138ac	-0.009840172
196	0x3d3344d8	0.043766826
197	0x3e0fafc9	0.140319
198	0xba872a0f	-0.0010312217
199	0x3e19ad1d	0.15007444
200	0x3e147020	0.14495897
201	0xbda2cabe	-0.07948826
202	0x3d8c654f	0.068552606
203	0x3ddd215f	0.10797381
204	0x3ce8f11c	0.028435282
205	0x3c760e8b	0.015018116
206	0x3d9adcbb	0.07561632
207	0xbdb66506	-0.089059874
208	0xbe74f19d	-0.23920293
209	0xbe0bc69c	-0.13649982
210	0x3d7c38ff	0.061577793
211	0x3dd45149	0.103670664
212	0x3e76f0ee	0.24115345
213	0xbdf31acd	-0.11870346
214	0x3e2c5678	0.1682986
215	0xbd2905c5	-0.041265268
216	0x3d451d9c	0.04812394
217	0x3b446d70	0.0029972456
218	0xbbd736f7	-0.0065678316
219	0x3dbb8ded	0.091579296
220	0x3d11068e	0.03540664
221	0x3d07abc9	0.03312281
222	0x3dece4b9	0.11567063
223	0x3e1953f4	0.14973432
224	0x3dc910aa	0.098176315
225	0x3c667cb9	0.014067822
226	0x3b759889	0.0037474951
227	0xbc2a96b7	-0.01041191
228	0x3d325ba9	0.043544445
229	0x3c6e89c4	0.014559213
230	0x3d23ba4b	0.039972585
231	0xbc725c0e	-0.014792455
232	0xbbb42147	-0.005497131
233	0x3d5e3360	0.054248214
234	0x3d84b882	0.064805046
235	0x3e047304	0.129345
236	0x3ea65fca	0.32494956
237	0x3dd261b7	0.10272544
238	0x3b7eccf6	0.003887949
239	0x3dcdbffe	0.10046385
240	0x3d6bb66b	0.057547014
241	0x3ce67db9	0.028136121
242	0xbd7d7cb4	-0.061886504
243	0x3e1a3cad	0.15062208
244	0xbd776548	-0.060399324
245	0x3e1ec79b	0.15505831
246	0xb9745504	-0.00023301324
247	0x3d0c883f	0.034309622
248	0x3ca1f855	0.019771734
249	0x3d0cae15	0.034345705
250	0x3e0bfe4d	0.13671227
251	0x3d5873e5	0.0528449
252	0xbdac8049	-0.08422906
253	0xbc9f47e4	-0.01944346
254	0xbd3dbc86	-0.046322368
255	0xbdca2cc1	-0.098718174

bn3.running_mean f4 [19]
0	0x3eb9834f	0.36232993
1	0x3eadb66a	0.33928233
2	0x3ee5c0da	0.44873697
3	0x3ed039dd	0.40669146
4	0x3ecc38c5	0.39887062
5	0x3edc6fbd	0.43054
6	0x3eaac7ed	0.33355656
7	0x3ecae623	0.39628705
8	0x3e95e388	0.29275155
9	0x3eb88334	0.360376
10	0x3f02fa5b	0.5116326
11	0x3ead1e27	0.33812067
12	0x3ec6134a	0.3868659
13	0x3f178ccc	0.59199214
14	0x3f88e711	1.0695516
15	0x3ed02da0	0.4065981
16	0x3eb27ec8	0.3486235
17	0x3ec9a24f	0.39381644
18	0x3f021c6c	0.5082462

bn3.running_var f4 [19]
0	0x3fc305cc	1.5236144
1	0x3f256c06	0.64617956
2	0x3f6f0bbb	0.93377274
3	0x3fde6f90	1.7377796
4	0x3f91e90e	1.1399248
5	0x3f6e2d42	0.9303781
6	0x3f33b79c	0.7020204
7	0x3fa9d36d	1.3267647
8	0x3ec8f05d	0.39245883
9	0x3fa78271	1.3086683
10	0x3f71ea33	0.94497985
11	0x3fbf4ff0	1.494627
12	0x3f9ff850	1.2497654
13	0x3ed483b4	0.41506732
14	0x3f953f3e	1.1659925
15	0x40110e5c	2.2665014
16	0x3f569f53	0.8383686
17	0x3f9ec59b	1.2404054
18	0x3f430626	0.76181257

conv3.weight f4 [19, 19, 3, 3]
0	0x3df0cba3	0.117575906
1	0x3e0559ed	0.13022585
2	0x3d928454	0.07154146
3	0x3c05c42a	0.008164445
4	0x3dd970bb	0.10617205
5	0xbb9b4a01	-0.0047390466
6	0x3d418324	0.047244206
7	0x3da4b9b8	0.080432355
8	0x3da62150	0.081118226
9	0xbde718ef	-0.112840526
10	0xbe3bda12	-0.18344906
11	0xbdfb73c4	-0.1227794
12	0xbe233445	-0.15937908
13	0xbd731d7a	-0.059354283
14	0xbd83e7f0	-0.06440723
15	0xbe217704	-0.15768057
16	0xbd14dcd0	-0.036343396
17	0xbbe8ffeb	-0.007110586
18	0x3e0e9e17	0.13927494
19	0xbc903536	-0.017603498
20	0xbd90415e	-0.07043718
21	0x3e162dc5	0.14665897
22	0xbd5f743d	-0.054554213
23	0xbb8c8775	-0.0042886087
24	0xbc9a3973	-0.018826222
25	0x3b823f1f	0.00397481
26	0xbc49ce5e	-0.012317268
27	0x3ca081c1	0.019593121
28	0x3d9b0c39	0.07570691
29	0xbcaee0f7	-0.021347506
30	0x3ba14f12	0.004922756
31	0xbd033f16	-0.032042585
32	0x3c786c35	0.015162517
33	0xbd05ee06	-0.0326977
34	0xbcc4b74e	-0.024013188
35	0x3dbd430c	0.09241304
36	0xbcae6ee3	-0.02129311
37	0xbe412d70	-0.1886499
38	0xbd95bf9d	-0.07311938
39	0x3d931694	0.07182041
40	0x3d15560b	0.03645901
41	0x3d3b2b54	0.045695618
42	0x3c607135	0.013698866
43	0xbaab7c4a	-0.0013083306
44	0xbe108e36	-0.14116749
45	0x3ec6cc93	0.38827953
46	0xbe3f2d64	-0.18669659
47	0xbdbe1d7f	-0.0928297
48	0x3e821e97	0.25413963
49	0xbdac5f40	-0.08416605
50	0xbb82b2e4	-0.0039886106
51	0x3e0bcf2a	0.13653246
52	0x3b36b3a2	0.0027878066
53	0xbc5744d1	-0.013138966
54	0x3d186da3	0.037213933
55	0x3e04a2d8	0.12952745
56	0x3db927a0	0.09040761
57	0x3db5a98c	0.08870229
58	0x3d9e427e	0.07727526
59	0x3db6196e	0.08891569
60	0x3c0c499b	0.008562471
61	0xbbd53d6b	-0.0065075657
62	0x3e4c4236	0.19947132
63	0x3dc3a15a	0.0955226
64	0x3c26ccce	0.010180665
65	0xbdefab99	-0.117026515
66	0x3d86c50b	0.06580552
67	0x3cdee708	0.027209774
68	0xbc710e11	-0.014712826
69	0xbcf98ca8	-0.030462578
70	0x3c1aa103	0.009437802
71	0x3c603456	0.013684353
72	0x3d53683b	0.051613074
73	0xbddd65ec	-0.10810456
74	0x3d417cd6	0.047238193
75	0x3df2c261	0.11853481
76	0xbc3939eb	-0.011305313
77	0x3d75778a	0.059928454
78	0x3e0929c7	0.13394843
79	0x3e344315	0.17603715
80	0x3e008893	0.12552099
81	0xbd69df35	-0.057097632
82	0xbdc43568	-0.09580499
83	0xbe150e3c	-0.14556211
84	0x3d4e2fcd	0.050338555
85	0x3d2588d6	0.0404137
86	0xbca0fe99	-0.019652652
87	0xbbe79ccd	-0.0070682527
88	0x3bf7a379	0.0075573293
89	0x3e20ab40	0.15690327
90	0x3e573522	0.21016362
91	0x3e2f9538	0.17146766
92	0x3dabe84f	0.08393919
93	0x3e28a451	0.16468932
94	0x3e106826	0.1410223
95	0x3e03eb36	0.12882695
96	0xbdd24996	-0.10267942
97	0x3a02be69	0.000498748
98	0x3e346345	0.17615993
99	0x3e2079a6	0.15671405
100	0x3d94fdab	0.07274946
101	0xbdb10ba4	-0.086447984
102	0x3dad7194	0.08468929
103	0x3c603e79	0.01368677
104	0xbc64da9b	-0.013968135
105	0xbd8f8643	-0.0700803
106	0x3d464bab	0.048412006
107	0xbd0a8c75	-0.033825357
108	0x3cfd922b	0.030953487
109	0x3e3054e5	0.17219885
110	0x3d25994c	0.0404294
111	0xb9fb2fdb	-0.00047910106
112	0x3e1d4f97	0.15362392
113	0xbce24440	-0.027620435
114	0x3c97859d	0.018496329
115	0x3d77ad40	0.06046796
116	0x3d6907fd	0.056892384
117	0xbd9442c5	-0.07239298
118	0xbd811b43	-0.06304028
119	0x3db598a3	0.08867004
120	0xbb87e3a0	-0.004147008
121	0xbdab6e7c	-0.083706826
122	0x3dd686c2	0.10474922
123	0x3d9e608a	0.07733257
124	0xbd56eb09	-0.05247024
125	0x3e11e607	0.14247905
126	0xbd6178b8	-0.055046767
127	0xbc57b8ec	-0.013166647
128	0xbcd2d930	-0.025738329
129	0xbc91c151	-0.017792376
130	0xbc960971	-0.018315049
131	0x3d5499e3	0.05190457
132	0xbe002a28	-0.12516081
133	0x3dd4e761	0.103956945
134	0x3d963541	0.07334376
135	0x3da06581	0.0783186
136	0xbd953d16	-0.07287042
137	0xbd89e53a	-0.067331746
138	0x3d301ab3	0.042994212
139	0xbe2d5df5	-0.16930373
140	0xbda2652e	-0.07929455
141	0xbdef0c30	-0.116722465
142	0xbe5124b0	-0.20424151
143	0x3c4c437e	0.012467263
144	0xbd7e08aa	-0.06201998
145	0xbe002384	-0.12513548
146	0x3ddb3533	0.10703506
147	0xbd67fe4d	-0.056639004
148	0xbd01fe41	-0.031736616
149	0xbcf9c05b	-0.03048723
150	0xbd0deffa	-0.034652688
151	0xbc7bc940	-0.015367806
152	0x3ce55811	0.027996095
153	0xbcc3907e	-0.02387261
154	0xbd269ab4	-0.04067488
155	0xbe0d3c90	-0.13792634
156	0x3d3f4da9	0.046704922
157	0x3abd389d	0.0014436428
158	0xbd9b8a25	-0.07594708
159	0x3d96ef7d	0.073698975
160	0x3cc1a32e	0.02363738
161	0x3cca59cb	0.02470102
162	0xbd13605d	-0.03598057
163	0xbda936cd	-0.082624055
164	0x3c59790d	0.01327349
165	0x3c523835	0.012830784
166	0xbd88d182	-0.066805854
167	0x3cd13029	0.02553566
168	0xbdcf925c	-0.10135338
169	0xbcb0acaf	-0.021566717
170	0x3db1a320	0.08673692
171	0xbd83a659	-0.06428213
172	0xbe2eb8c4	-0.1706267
173	0xbc28a48b	-0.010293136
174	0x3d24a41c	0.04019557
175	0xbde6c9a7	-0.11268931
176	0xbda1ba05	-0.078968085
177	0x3e23c90a	0.15994659
178	0xbce20fcb	-0.027595421
179	0xbd991336	-0.07474367
180	0xbbeb7be1	-0.0071863984
181	0xbd457289	-0.048204932
182	0xbd26756f	-0.040639337
183	0xbdb29801	-0.08720399
184	0xbbfce1f5	-0.007717366
185	0xbd4ae4b7	-0.049534526
186	0xbd974f55	-0.07388178
187	0x3c6394b5	0.013890435
188	0xbd530f0d	-0.051528025
189	0xbe17efff	-0.14837645
190	0xbd0dc697	-0.03461322
191	0x3d84ad0f	0.06478321
192	0xbe07fbcc	-0.13279647
193	0xbd8b2201	-0.06793595
194	0x3dcdc04a	0.10046442
195	0xbdc4f42c	-0.096168846
196	0xbc6df2cb	-0.014523218
197	0x3db3cd7f	0.0877943
198	0x3ddeac5c	0.10872719
199	0xbe491807	-0.19638072
200	0xbccd5933	-0.025066948
201	0x3cd00f28	0.025397852
202	0xbdb49fd0	-0.08819544
203	0xbce11f34	-0.0274807
204	0x3d8423c0	0.06452131
205	0xbd5425c3	-0.051793825
206	0xbde5ac0f	-0.11214458
207	0x3d8dc5f7	0.069225244
208	0x3caa0357	0.020753546
209	0xbd1c2a00	-0.03812599
210	0xbb5acf55	-0.003338774
211	0x3e3c04ad	0.18361159
212	0xbc1b7ec6	-0.009490674
213	0xbda46432	-0.08026923
214	0x3ddadda0	0.10686803
215	0x3c70a12b	0.014686863
216	0x3d92c538	0.07166523
217	0x3e3a6ef2	0.18206385
218	0xbd7b935b	-0.061419826
219	0x3d3417cb	0.043968003
220	0x3d870555	0.06592814
221	0xbdaa270d	-0.083082296
222	0xbdceacf7	-0.10091584
223	0x3d428d19	0.047497842
224	0xbd90f177	-0.07077306
225	0xbda1891f	-0.07887482
226	0xbd25350c	-0.040333793
227	0xbdf04d20	-0.117334604
228	0xbe274e53	-0.16338472
229	0x3d3d6383	0.04623748
230	0xbd00db63	-0.031459223
231	0xbe0e5f80	-0.13903618
232	0x3e0259c1	0.12729551
233	0x3b4b4b02	0.003102005
234	0xbe0931f2	-0.13397959
235	0xbda9d934	-0.08293381
236	0xbc0e665b	-0.008691396
237	0xbd9c4df1	-0.07632054
238	0x3d7948b9	0.06086037
239	0xbcf350f2	-0.029701684
240	0xbd6fad76	-0.058515035
241	0x3e1c2465	0.15248258
242	0xbd8e61f9	-0.069522806
243	0xbdb3913c	-0.08767936
244	0x3caf5855	0.021404425
245	0xbd7b5876	-0.06136366
246	0xbdc35f6f	-0.09539687
247	0xbc493e1b	-0.0122828735
248	0xbd26bfbe	-0.040710203
249	0xbdeebaf0	-0.11656749
250	0x3d8a5bee	0.067558154
251	0xbdebd6b2	-0.11515559
252	0xbb9ff284	-0.004881205
253	0xbe2ab48a	-0.16670433
254	0xbc65a408	-0.014016159
255	0x3d8e8c9f	0.06960415

bn4.running_mean f4 [19]
0	0x3fa5bbef	1.2947978
1	0x3f705495	0.9387906
2	0x3f6d7ce8	0.92768717
3	0x3fca7524	1.5816998
4	0x3f2eb863	0.682501
5	0x3f8e1b71	1.1102124
6	0x3f8bdea8	1.0927324
7	0x3f3aef3c	0.7302129
8	0x3fa86bb4	1.3157868
9	0x3fc03d51	1.5018712
10	0x3efc4601	0.4927216
11	0x3fa57997	1.2927731
12	0x3fa54a5f	1.2913321
13	0x3f16f458	0.5896659
14	0x3fa3d84e	1.2800386
15	0x3fa3cd2a	1.2796986
16	0x4001f6b3	2.0306823
17	0x3faa018e	1.3281724
18	0x3fb67ff8	1.4257803

bn4.running_var f4 [19]
0	0x3fb21090	1.3911304
1	0x4046e2cf	3.1075933
2	0x4085d2a8	4.181965
3	0x403dfa29	2.9683936
4	0x3f3aaa7f	0.72916406
5	0x40e69cf2	7.2066584
6	0x40a9b72f	5.3036113
7	0x3ff15cfb	1.88565
8	0x3fa93280	1.3218536
9	0x3f3c7802	0.7362062
10	0x3f93c7b0	1.1545315
11	0x402ec6ca	2.7308831
12	0x409f81bc	4.9845867
13	0x3f83a551	1.0284826
14	0x40352a8f	2.8307226
15	0x3f8f6c04	1.1204839
16	0x40b0f951	5.530434
17	0x3f5cb960	0.8622036
18	0x41783eb3	15.515307

conv4.weight f4 [19, 19, 3, 3]
0	0x3b976c1e	0.004621043
1	0xbd8f53ba	-0.069983914
2	0xbdf7a93d	-0.120928265
3	0x3da667e0	0.08125281
4	0xbe2f512e	-0.17120811
5	0xbca7d404	-0.02048684
6	0xbdc08a45	-0.09401373
7	0xbe7de908	-0.24795926
8	0xbb34c689	-0.0027584156
9	0x3d257e8c	0.040403888
10	0xbe07fc60	-0.13279867
11	0x3d3e2e12	0.046430655
12	0x3da22891	0.07917894
13	0xbda8dec2	-0.08245613
14	0x3de19ead	0.11016593
15	0x3dc86894	0.09785572
16	0xbe13653d	-0.14394088
17	0x3e8de7d0	0.2771592
18	0x3e1502d2	0.14551857
19	0xbd9fa819	-0.07795734
20	0xbcc9112d	-0.024544323
21	0x3d076e55	0.033064205
22	0x3d41ed75	0.047345597
23	0x3d217d94	0.0394264
24	0xbd06356c	-0.03276579
25	0x3bbee2c5	0.005825373
26	0x3d7b4b0c	0.061350867
27	0xbdaf0e3f	-0.08547639
28	0xbb799e5d	-0.0038088777
29	0x3d8f9ac3	0.0701194
30	0xbd25d7a6	-0.04048886
31	0x3d47e1d1	0.04879934
32	0x3e6d9aa2	0.23203519
33	0xbdb26321	-0.087103136
34	0x3c942735	0.018085102
35	0x3dddeca1	0.10836149
36	0x3dc35c55	0.09539095
37	0xbe6a3df9	-0.22875203
38	0xbdca1294	-0.09866825
39	0x3e2e9cbe	0.1705198
40	0x3d31f474	0.04344602
41	0xbcb55923	-0.02213723
42	0xbc597b68	-0.013274051
43	0xbd4ee0d5	-0.050507385
44	0xbc4ebba6	-0.012617981
45	0x3cf2bd19	0.029631184
46	0xbd0b16a1	-0.033957127
47	0x3e1e179c	0.15438694
48	0x3c0c8549	0.0085766995
49	0x3e06906b	0.13141029
50	0x3e0d6c1d	0.13810773
51	0x3b0ec4a6	0.0021784692
52	0x3d435024	0.04768385
53	0x3e05500b	0.13018815
54	0xbda05e33	-0.07830467
55	0xbc9889ba	-0.01862036
56	0x3d344fba	0.044021346
57	0xbd68ff30	-0.05688399
58	0xbd06710b	-0.03282265
59	0xbdcc62ae	-0.09979759
60	0x3da71f98	0.08160323
61	0x3d338a0e	0.04383283
62	0x3dd1b636	0.10239832
63	0x3c81fd00	0.01586771
64	0xbd0dd3ff	-0.034626003
65	0xbe459418	-0.19294775
66	0xbda752b8	-0.08170074
67	0xbd0904bb	-0.033451777
68	0xbdb2256f	-0.08698546
69	0xbce16aa4	-0.02751667
70	0xbdddd57c	-0.108317345
71	0xbd91901b	-0.07107564
72	0xbb866b94	-0.00410218
73	0x3d38ffb9	0.04516575
74	0xbdfd6df6	-0.12374489
75	0x3ca38de8	0.019965127
76	0x3d13bc1a	0.03606806
77	0xbd8a0416	-0.067390606
78	0xbe3c91a4	-0.18414932
79	0xbdbb6aee	-0.091512546
80	0xbdbba225	-0.09161786
81	0x3ddb0586	0.10694413
82	0x3b80e448	0.0039334632
83	0x3ddabd2a	0.106806114
84	0x3dc597c0	0.09648085
85	0xbe006afb	-0.1254081
86	0x3dd1482f	0.10218846
87	0x3e32e9cf	0.17472003
88	0xbe1ba818	-0.15200841
89	0x3d9ef134	0.077608496
90	0x3de2b6ac	0.11069998
91	0x3e06c766	0.13162002
92	0xbb0284ef	-0.001991566
93	0x3d8c5465	0.068520345
94	0x3dbedf7f	0.09319972
95	0xb92338ea	-0.00015566093
96	0x3e052226	0.13001308
97	0x3dddcde5	0.10830287
98	0xbdea0965	-0.11427573
99	0xbd0ce2b6	-0.034395896
100	0x3d86b336	0.065771505
101	0x3e146301	0.14490892
102	0xbd57a098	-0.05264339
103	0xbbb64a49	-0.0055630547
104	0x3da1a66a	0.07893069
105	0xbd59ba99	-0.05315647
106	0xbd7e7255	-0.062120754
107	0x3cd7263f	0.026263354
108	0x3c2fc541	0.010728181
109	0xbd294259	-0.04132304
110	0xbda81749	-0.08207566
111	0x3d949ef0	0.072568774
112	0x3dcebc13	0.10094466
113	0xbd843da5	-0.0645707
114	0xbb4972a9	-0.0030738509
115	0x3d530f51	0.05152828
116	0xbdb0c74c	-0.08631763
117	0x3d78dca6	0.0607573
118	0x3dd08b41	0.101828106
119	0x3d990777	0.07472127
120	0xbd912aaf	-0.070882194
121	0x3dedff7b	0.11620995
122	0xbc922225	-0.017838547
123	0xbe20dc65	-0.15709074
124	0xbd3dedb0	-0.046369255
125	0x3b23198c	0.0024887053
126	0x3bcccd56	0.006250064
127	0x3c7ce927	0.015436447
128	0xbd87286c	-0.06599507
129	0x3d92b0df	0.07162642
130	0x3d76043d	0.060062636
131	0x3c19b8a2	0.009382399
132	0xbde3a9cc	-0.111163706
133	0xbccae402	-0.024766926
134	0x3daeeccc	0.08541259
135	0x3deb9d19	0.115045734
136	0x3c9d9473	0.019235825
137	0xbdb49395	-0.088172115
138	0x3d921822	0.07133509
139	0x3d3b5488	0.045734912
140	0xbdacfcac	-0.08446631
141	0x3d70673d	0.058692206
142	0xbdbe410e	-0.09289752
143	0x3c83d52b	0.016092857
144	0x3c7844e0	0.01515314
145	0xbd529447	-0.05141094
146	0xbe1fa89b	-0.15591662
147	0x3d231cda	0.039822437
148	0xbe139415	-0.14411958
149	0xbdf4eb40	-0.11958933
150	0x3e193a8f	0.14963745
151	0xbe317c13	-0.17332487
152	0xbde0d9a0	-0.10979009
153	0xbd190248	-0.03735569
154	0x3cb11a2e	0.021618929
155	0x3caca1bc	0.021073215
156	0x3d03be93	0.032164168
157	0x3d2f1cad	0.042751957
158	0x3e6a1969	0.22861256
159	0xbe8127ee	-0.25225776
160	0xbd5dc89d	-0.054146398
161	0x3e038dec	0.12847108
162	0xbd85c3bb	-0.06531473
163	0xbdd827e0	-0.105544806
164	0xbcf380eb	-0.029724559
165	0x3d72f68c	0.059317157
166	0x3dc9d944	0.09855893
167	0x3d2b0136	0.0417492
168	0xbd84315b	-0.06454726
169	0x3cf50416	0.029909175
170	0x3dd9baed	0.106313564
171	0xbe17f17b	-0.14838211
172	0xbdfa6001	-0.122253425
173	0x3da95e7e	0.08269976
174	0xbd96ed06	-0.073694274
175	0x3d4ebbde	0.050472133
176	0xbc8ee556	-0.01744334
177	0xbd9dd134	-0.07705918
178	0x3de0196c	0.10942349
179	0xbcffed86	-0.03124119
180	0x3cc0c48a	0.023531217
181	0x3d978d0a	0.07399948
182	0xbe44a35b	-0.1920294
183	0x3d5c96da	0.0538548
184	0x3a4a497a	0.00077166373
185	0xbe426851	-0.18985106
186	0xbc876f1a	-0.01653247
187	0x3d252209	0.04031566
188	0xbcaabc3b	-0.020841708
189	0x3bcd7274	0.0062697474
190	0xbdf83c8a	-0.12120922
191	0x3d180c06	0.03712084
192	0x3d8d5750	0.06901419
193	0xbda5f3cd	-0.08103142
194	0xbda721ea	-0.081607655
195	0x3e44e0cf	0.19226383
196	0x3dc875ca	0.097880915
197	0xbe298d39	-0.16557778
198	0x3d911e56	0.07085864
199	0xbcf3b3b8	-0.029748783
200	0xbd3db94c	-0.04631929
201	0xbbca1074	-0.006166512
202	0x3dce4b99	0.10073013
203	0x3d34a619	0.044103716
204	0x3da4e528	0.080515206
205	0x3c6722bf	0.014107405
206	0x3de0c795	0.10975567
207	0x3d2a982d	0.041649032
208	0xbca97024	-0.020683356
209	0xbd909276	-0.07059185
210	0xbc813c02	-0.015775684
211	0x3cfad210	0.030617744
212	0xbd1c8ac3	-0.03821827
213	0xbd3c9f86	-0.04605057
214	0xbc74bf41	-0.014938177
215	0xbc9bf2cf	-0.019036679
216	0xbd428c48	-0.047497064
217	0xbe57c270	-0.21070266
218	0xbe0651d5	-0.13117154
219	0xbd95f94b	-0.073229395
220	0xbdcc57c0	-0.099776745
221	0xbe08e9ea	-0.13370481
222	0xbcbbf9b6	-0.02294622
223	0x3d3265c4	0.043554083
224	0xbda950de	-0.08267377
225	0x3d175c71	0.036953393
226	0x3d7ab8c4	0.061211362
227	0x3d99fdd7	0.07519119
228	0xba08afec	-0.00052142027
229	0x3dd59351	0.10428489
230	0x3cdf0aa1	0.027226748
231	0xbc39a0ea	-0.011329869
232	0x3cc723d5	0.024309078
233	0xbab9d3fe	-0.0014177558
234	0xbb4ede6c	-0.003156568
235	0xbe3b7c66	-0.18309173
236	0xbd9b48b2	-0.07582225
237	0xbe18537a	-0.14875594
238	0xbdd3fec5	-0.10351328
239	0x3cce433e	0.025178548
240	0xbd8759fe	-0.066089615
241	0x3bed1840	0.007235557
242	0x3e2bda41	0.16782476
243	0x3e97eac3	0.29671296
244	0x3d16dbdb	0.036830764
245	0xbd164743	-0.036689054
246	0x3c829ba3	0.015943354
247	0x3a31d3e7	0.000678359
248	0xbd282bdc	-0.041057453
249	0x3d02fd8f	0.031980094
250	0xbcd3dca7	-0.025862051
251	0x3ddd66ec	0.108106464
252	0x3e26d75c	0.1629309
253	0x3d96e266	0.07367401
254	0x3debc000	0.115112305
255	0x3d9d3d05	0.07677654

bn5.running_mean f4 [19]
0	0x3e73259d	0.23744817
1	0x3e9ad555	0.30240884
2	0x3e8c19b4	0.2736336
3	0x3e46d518	0.19417226
4	0x3e8eedc8	0.27915788
5	0x3ecf18b2	0.4044853
6	0x3f6d5be6	0.9271835
7	0x3e7662fc	0.24061197
8	0x3f161b9d	0.58635885
9	0x3ed86313	0.42263088
10	0x3ea4271d	0.3206109
11	0x3ec003a3	0.37502775
12	0x3e84dcd3	0.25949726
13	0x3e84144b	0.25796732
14	0x3ea6afbb	0.32555947
15	0x3e7d655f	0.24745701
16	0x3e6aa2c5	0.22913654
17	0x3ea2db15	0.3180777
18	0x3ef86fe2	0.4852286

bn5.running_var f4 [19]
0	0x3ee7d78d	0.4528164
1	0x3e9c64cb	0.3054565
2	0x3edf2528	0.43583035
3	0x3e7b9540	0.24568653
4	0x3f11d0ce	0.56959236
5	0x3f93f612	1.155947
6	0x3f26a625	0.65097266
7	0x3ec23e1a	0.37938005
8	0x3ec2dbba	0.38058263
9	0x3ec2cfa4	0.38049042
10	0x3f05b0da	0.5222298
11	0x3ee98a94	0.4561354
12	0x3ec14138	0.3774507
13	0x3f094c77	0.536323
14	0x3edf277d	0.43584815
15	0x3edfe5bc	0.4372996
16	0x3e954e63	0.29161367
17	0x3f4de1ef	0.8042287
18	0x3f2be583	0.6714708

conv5.weight f4 [19, 19, 3, 3]
0	0x3cab27dc	0.02089303
1	0x3d40fe57	0.047117557
2	0x3e0c2d90	0.13689256
3	0xbcef2f52	-0.029197369
4	0xbc2ebf50	-0.01066573
5	0x3cc18c48	0.023626462
6	0xbd6ad91c	-0.057335958
7	0xbde6190b	-0.11235245
8	0xbb48ca72	-0.0030638245
9	0x3dda9cb5	0.10674421
10	0x3da84f74	0.082182795
11	0x3b777a62	0.0037762155
12	0x3e69999f	0.22812508
13	0x3da009d2	0.07814373
14	0x3e22ec0e	0.1591036
15	0x3dafafde	0.08578466
16	0x3ca4b072	0.020103667
17	0xbb9bc54a	-0.0047537433
18	0xbcf74141	-0.030182483
19	0xbded37f8	-0.11582941
20	0xbd7578ff	-0.059929844
21	0xbd11ef82	-0.035628803
22	0xbdebb989	-0.115099974
23	0xbcb111d6	-0.02161495
24	0xbdfba3b2	-0.12287082
25	0xbdf42e79	-0.119229265
26	0x3d9e2f1e	0.07723831
27	0xbdeec84c	-0.11659297
28	0xbd862b83	-0.06551268
29	0x3db408b2	0.08790721
30	0xbc9f206e	-0.019424643
31	0xbcfa8bef	-0.030584304
32	0xbd615385	-0.05501129
33	0xbd9e5590	-0.077311635
34	0xbd7e3327	-0.0620605
35	0x3daf7d2e	0.08568798
36	0x3e73b8a2	0.238009
37	0xbc0cf6e4	-0.008603785
38	0xbd663f36	-0.056212626
39	0xbe54e860	-0.20791769
40	0xbe46607e	-0.19372746
41	0x3ce704a0	0.028200448
42	0xbe1f1182	-0.15534022
43	0xbda51fc6	-0.08062701
44	0xbd276320	-0.040866017
45	0x3e4d26d6	0.20034346
46	0x3d848179	0.064700074
47	0x3b62a5a7	0.00345836
48	0xbd8390b4	-0.06424084
49	0x3bd7490e	0.006569988
50	0x3dd8fb60	0.10594821
51	0xbe333aa3	-0.17502837
52	0x3c2c26c2	0.010507287
53	0x3d9f64ab	0.07782873
54	0xbe01027a	-0.12598601
55	0xbdd7b44d	-0.105324365
56	0x3cf25861	0.029583158
57	0xbb3da10c	-0.0028935103
58	0xbbba38a2	-0.0056830207
59	0x3d99b2cf	0.07504808
60	0x3def4229	0.11682541
61	0x3e142ea2	0.14470914
62	0x3dd1d4c0	0.10245657
63	0x3c9f4c9d	0.019445712
64	0x3e5fec6f	0.21867536
65	0xbda76a85	-0.08174614
66	0xbdb1e938	-0.08687061
67	0x3d1d5870	0.03841442
68	0xbe1d775b	-0.15377562
69	0xbe7ad3af	-0.24494813
70	0x3d5afcd0	0.053463757
71	0xbd3b51ca	-0.045732297
72	0x3e17bd7d	0.14818378
73	0x3dbfb9e6	0.09361629
74	0xbdadf013	-0.08493056
75	0x3e563cdd	0.20921655
76	0x3d99c425	0.07508115
77	0x3e2665ca	0.16249767
78	0x3db9525f	0.09048914
79	0x3ccb1807	0.02479173
80	0x3d4ed5e3	0.050496947
81	0xbcf12bb5	-0.029439786
82	0xbea68a9c	-0.32527626
83	0xbb611826	-0.003434667
84	0x3e306786	0.17226991
85	0xbd314e85	-0.043287773
86	0x3d89f7be	0.06736706
87	0x3e37df2d	0.17956229
88	0xbb4ca3b4	-0.0031225504
89	0x3d3894d1	0.045063797
90	0xbdd28ccc	-0.10280761
91	0xbbe028eb	-0.0068408153
92	0x3d307038	0.04307577
93	0xbe13451e	-0.14381835
94	0x3d973171	0.07382477
95	0x3d6993bd	0.05702566
96	0xbd2ceb72	-0.042216726
97	0xbc8aa709	-0.016925352
98	0x3c4fd783	0.012685659
99	0xbdabcbb9	-0.083884664
100	0xbe49e48b	-0.19716088
101	0x3cf845b3	0.030306673
102	0xbd1533a7	-0.036426213
103	0xbbabf72e	-0.005247972
104	0x3deef6f2	0.11668195
105	0x3e1ff0d0	0.15619206
106	0x3d42799f	0.04747927
107	0x3e85e001	0.26147464
108	0xbce4b912	-0.02792028
109	0xbe357cb0	-0.17723346
110	0x3cddc7c1	0.02707279
111	0x3e12c3ab	0.14332454
112	0xbda018d2	-0.07817234
113	0x3d0a5bb5	0.033778865
114	0x3d8462e3	0.06464174
115	0xbd1918f7	-0.037377324
116	0xbcc6180e	-0.024181392
117	0xbd93e03f	-0.07220506
118	0x3dac7d88	0.08422381
119	0x3dbaddd8	0.091243446
120	0xbd6ca0d8	-0.05777058
121	0x3e19ec79	0.15031613
122	0x3d4abf3e	0.04949879
123	0xbde77710	-0.11302006
124	0xbb4a42e7	-0.003086263
125	0x3db6fc4d	0.08934841
126	0xbe21b57f	-0.15791892
127	0xbd895834	-0.067062765
128	0xbcb9fb2c	-0.022702776
129	0x3db17688	0.08665186
130	0x3e357dd9	0.17723788
131	0x3d75d886	0.060020946
132	0x3df7e691	0.12104524
133	0x3d94b097	0.07260244
134	0x3dca5b11	0.09880651
135	0xbc2842af	-0.010269805
136	0x3d03506b	0.032059114
137	0x3ddb6c56	0.10714023
138	0x3e22a28e	0.15882322
139	0x3e1e2bdd	0.1544642
140	0x3e2bf9dc	0.16794533
141	0x3b15b777	0.002284495
142	0xbdbd6eb4	-0.092496306
143	0x3d31bfe1	0.04339588
144	0xbdb2cc92	-0.08730425
145	0xbd7d596a	-0.06185285
146	0xba95c175	-0.0011425453
147	0x3ae91b8a	0.0017784697
148	0x3c582b98	0.013193987
149	0x3ba44a13	0.005013713
150	0x3ce85542	0.028360967
151	0xbcc3ff90	-0.023925573
152	0xbcf3ea18	-0.02977471
153	0xbe0a1a01	-0.13486482
154	0xbe021aae	-0.1270549
155	0xbe6cd858	-0.23129404
156	0xbc72d428	-0.01482109
157	0xbd8bb27f	-0.06821155
158	0x3d876ddb	0.0661275
159	0xbd3211a4	-0.043473855
160	0x3db7c135	0.08972398
161	0x3cda6f66	0.026664447
162	0xbc07f8c1	-0.008299054
163	0xbe04f2b0	-0.12983203
164	0x3e0643d5	0.13111813
165	0x3d08ceb5	0.033400256
166	0x3d9c42ab	0.076299034
167	0x3d9406c4	0.07227853
168	0xbd816e84	-0.06319907
169	0xbd48d565	-0.049031634
170	0x3ddab059	0.10678167
171	0xbd889a0f	-0.06670009
172	0x3d9262c9	0.07147748
173	0x3d89865c	0.0671508
174	0xbdf6e4dd	-0.12055371
175	0xbb73ca3e	-0.0037199403
176	0xbba368c3	-0.004986854
177	0x3ccdff18	0.025146052
178	0xbd1ac7c8	-0.037788182
179	0xbdc702f3	-0.097173594
180	0xbdc1e708	-0.09467894
181	0xbe0a8f9a	-0.13531342
182	0x3c51575b	0.012777175
183	0xbd39683a	-0.045265414
184	0xbcaaf79f	-0.020870028
185	0x3de9644e	0.11396085
186	0xbd5039d9	-0.050836418
187	0x3d7b5bf6	0.061366998
188	0x3d2040ed	0.039124418
189	0xbdf591ba	-0.11990686
190	0xbe098a9e	-0.13431785
191	0x3d8366d0	0.06416094
192	0xbdcf1a0b	-0.10112389
193	0xbe02f3b9	-0.12788285
194	0x3dd061c8	0.101749
195	0x3dbeb053	0.09310975
196	0xbce231fd	-0.027611727
197	0x3da20f97	0.0791313
198	0x3dad959e	0.08475803
199	0x3e185ee3	0.14879946
200	0x3d088641	0.03333116
201	0xbd1cd92f	-0.03829306
202	0x3dc067bd	0.093947865
203	0xbd4607ab	-0.048347156
204	0xbe03976b	-0.1285073
205	0x3d1376dd	0.03600203
206	0xbca739d9	-0.020413326
207	0xbdd7d8d3	-0.10539403
208	0x3e2c9708	0.16854489
209	0xbe2a731b	-0.16645472
210	0xbe105c7d	-0.14097781
211	0x3e464bce	0.19364855
212	0x3cd533d0	0.026025683
213	0xbd04cc78	-0.03242156
214	0x3c7f071e	0.015565662
215	0x3e2d0586	0.16896638
216	0xbe7eecc9	-0.24895014
217	0x3d21e92d	0.039529014
218	0xbd7c33d2	-0.061572857
219	0xbe9d630a	-0.30739623
220	0xbd8bd37b	-0.06827446
221	0xbb514292	-0.0031930548
222	0x3d3ee9e1	0.046609763
223	0xbcb70596	-0.02234153
224	0xbdd8ba70	-0.10582435
225	0xbd752477	-0.05984923
226	0xbc163006	-0.009166723
227	0xbd7ab7c9	-0.061210427
228	0xbe1cc7cc	-0.15310591
229	0xbd63a404	-0.05557634
230	0xbdd4fc12	-0.10399641
231	0xbe5aeff9	-0.21380605
232	0x3c2b23db	0.01044556
233	0xbbd9a6cf	-0.0066421996
234	0x3dfeeec1	0.124478824
235	0x3e12fb2c	0.14353627
236	0xbe6686b9	-0.2251233
237	0xbe036bcb	-0.12834089
238	0x3eaead4e	0.34116596
239	0x3d9d72e2	0.07687928
240	0xbed18528	-0.40921903
241	0x3e377e75	0.17919333
242	0x3e03d752	0.12875107
243	0xbe226682	-0.15859416
244	0x3e6e9277	0.2329806
245	0xbe1ec8b3	-0.15506248
246	0xbdd1aa69	-0.10237581
247	0x3d9b40da	0.07580729
248	0xbd9939b4	-0.07481709
249	0xbc0681d9	-0.008209669
250	0xbdb1621f	-0.08661293
251	0x3debdd7a	0.11516853
252	0x3dd79843	0.105270885
253	0xbe3ca79d	-0.18423314
254	0xbd9ac0a3	-0.07556274
255	0x3c863d7f	0.016386745

bn6.running_mean f4 [19]
0	0x3fd9fe71	1.7030774
1	0x3ffac8f7	1.959258
2	0x3fa420b5	1.2822481
3	0x3ff1d6f6	1.8893726
4	0x3f8df886	1.1091468
5	0x3fcd79bb	1.6052774
6	0x3fbe7694	1.4879937
7	0x3f903dbf	1.1268843
8	0x3fe2e2cc	1.7725463
9	0x400b6e59	2.17861
10	0x3f55b105	0.83473235
11	0x3fdc95f5	1.7233263
12	0x3fcb45bb	1.5880655
13	0x3f6e4532	0.93074334
14	0x3fca7347	1.581643
15	0x3fd4c599	1.6622802
16	0x402065bc	2.5062094
17	0x3fea5b9e	1.8309209
18	0x3ff6bf07	1.9277047

bn6.running_var f4 [19]
0	0x4025d359	2.5910246
1	0x414d93de	12.8486
2	0x40af1c6b	5.472219
3	0x40980e47	4.751743
4	0x3fd650a1	1.6743356
5	0x412739b2	10.451586
6	0x40c43ee7	6.1326785
7	0x4048d258	3.1378384
8	0x400819a7	2.1265657
9	0x3fefcd83	1.8734592
10	0x400e1b83	2.2204292
11	0x40635914	3.552312
12	0x40c28e05	6.0798364
13	0x40222848	2.5337086
14	0x4032304f	2.7841985
15	0x3ff12359	1.8838912
16	0x4106103e	8.378965
17	0x3fd3b94a	1.6540921
18	0x4167ef20	14.49588
