demo/res15_fine_grained.pt (torch_old, 967763 bytes, 42 tensors)

conv0.weight f4 [45, 1, 3, 3]
00000000: 009d 60be 73b5 923a 9ad6 3c3d a48a 97bc
00000010: 1bc6 e93c 57b2 bdbb 5539 593e 6582 6c3d
00000020: fc63 c3bd 3256 bf3d 6df4 11be 176f 73bd
00000030: 7a37 953d f396 a3bc 1a94 8abd 248f a83c
00000040: 7445 1c3e ea01 e8bd 9a27 5a3e 9a75 c8bd
00000050: 2663 40be 7ecf 24bd 1baa 913d a822 41bd
00000060: 0050 39be b48a 463d dcca 613e 4124 3dbc
00000070: 9e3c be3d e356 03be 81fa c93c 3270 2f3d
00000080: d1bb 63be c473 733d 3f8a 723c 1911 65be
00000090: 2a8d 39be f863 5b3c 84b6 ab3d d4cb 4dbc
000000a0: 4a36 e5bc 5750 c9bd 98ed 403e b8f2 533d
000000b0: 8994 a0bc 5f29 a9bd fb98 94bd e60d e03d
000000c0: c211 b23d 5624 1abd 7759 533d cd1b 283e
000000d0: b9e2 313d 4a90 e43b cf82 a83e 4160 973d
000000e0: 70e9 8ebd d41f a53c 6c19 f23b e59e 9f3d
000000f0: 416f 9dbe 9957 0dbe a553 d23c 9d64 5abe
00000100: e6b3 34bd ceb5 babd 5e1d fa3d a467 243e
00000110: 9db7 1b3e 942b a83d 6a33 8ebd f121 58bd
00000120: b6c9 323d ed45 edbd b8e6 8d3d 873f 5dbd
00000130: 3264 17bd 1a1c 9a3d d794 90bd c1ac 9c3d
00000140: 1b31 d13d bdd4 193e 7e28 883e c84e 3e3e
00000150: de11 e5bd 9b32 01be a494 6c3b 8923 3bbd
00000160: 44b2 30be aa99 0cbe 1898 95bd 0453 8c3e
00000170: 0304 3a3e 1949 78bd 938f a6bd 245d e33d
00000180: af1c 5e3c a8f2 6dbe 5b92 98bc 3be9 9bbc
00000190: 00dc 8f3d acb1 913c af2a 1c3d 775c a7bc
000001a0: cfbc ce3b 91b6 ef3b a78e d1bc 6e91 d7bb
000001b0: 62e0 59be b0e9 493d 1eb7 643e b33a 25bc
000001c0: f315 123c 2abc 4dbc a97b 2f3e 0e89 89bc
000001d0: f0d5 73be 78ca 863e e4f4 883d 1de7 3d3e
000001e0: 80af 37bd 65dd fdbc 422a 55bd 7522 78be
000001f0: 0cfb b03b 352b 0dbe 73f9 cebd 6465 51bd
00000200: 6434 52bc 7575 08be f00a cfbd e9bd 78bc
00000210: 49f9 85bd fa89 bcbd 77f6 14bd d7ab 0b3e
00000220: d213 79bd 34fb adbc 4f4c 423d 4373 45bd
00000230: 6551 36bd e943 03be 6a39 463e a6ab a9bd
00000240: 7e87 cabd 3527 2a3d de17 81bd c997 d83c
00000250: 2841 ffbc 6f55 aa3d 87ad 133e b261 d1bc
00000260: c8aa 533e afa1 2cbe d4a2 82bd d414 d4bd
00000270: f47c acbd 22a5 c4bd 7954 98bd 7f98 713e
00000280: 5948 3e3e c457 763e 0bed 04bd e272 92be
00000290: 68bc 7e3d 87ec d93b c76b 573d 20fa be3d
000002a0: 6cd4 153d b079 873e 8a68 2fbe 26bd 42be
000002b0: bc8d b73d 318a 913e 3d32 7fbc 682a 53bd
000002c0: bb2e 43bc 5aaa 523e 0c3c cabd b89e 54be
000002d0: c396 d03c 83bc 4dbd ba5c abbd ddbe 22bd
000002e0: 9070 d03d a9cf 26bb 1ac5 eebd b57b 4b3e
000002f0: 9a53 ad3c c271 9e3b 58e2 b83c aa29 5d3d
00000300: 4a9e a73d e7ce ca3d 5962 9a3d 5396 1b3e
00000310: 4a4f f63d e18e 10bd ed86 33bd b273 a23d
00000320: 83b3 17be d0c6 0a3e 239a 933d d97e a1bd
00000330: 2678 5b3e 1213 823d c746 65bd 5e3d 233d
00000340: 4e88 9f3d 2609 d0bd 8b1b a8ba bd16 993b
00000350: 4f2f 0d3d 391a 03bd cf30 b5bd 8ff3 103e
00000360: 04f9 f63d 94e0 313e e77a eabd ae51 7d3d
00000370: 1744 e33d 82f3 243e 439d 32be b584 81be
00000380: 0f3e 8abd 4737 aabc fdd3 e03d 438c b83d
00000390: aa32 32be 6745 82be 20d1 42be 900f 4b3e
000003a0: 1b25 1a3e 128f ed3d 4a66 4b3c aa88 433c
000003b0: b00c 273e 02e1 673d acfe 063d ed19 67bc
000003c0: 470d 60bc 953c ebbc fb81 46be c84a ed3d
000003d0: 863b babd 2c0b 0c3d 83e9 723b ec78 cebc
000003e0: e98b a6bc 3412 dbbd c6a3 b53d ff3f 32bd
000003f0: 920c ce3d b844 053d 3440 e13c fe8e 6abe
-0.21934891 0.0011192992 0.046103097 -0.018498726 0.028536847 -0.005789082 0.21213277 0.05774154
-0.09540555 0.09342612 -0.14253397 -0.059432115 0.07285972 -0.01996944 -0.067665294 0.020576067
0.1526087 -0.1132849 0.2130417 -0.09788056 -0.18787822 -0.040236942 0.07112523 -0.04715219
-0.18096924 0.04847212 0.22050041 -0.011544288 0.092889056 -0.12826113 0.024655582 0.042831607
-0.22239615 0.059436575 0.014803468 -0.22369803 -0.18120256 0.013390534 0.083844215 -0.012560803
-0.027979989 -0.09829777 0.18840635 0.051745147 -0.019602077 -0.08259844 -0.07255741 0.10940151
0.08694793 -0.03763231 0.051598992 0.16416855 0.04342911 0.0069752084 0.329123 0.07391406
-0.069781184 0.020156778 0.0073882844 0.077939786 -0.30748942 -0.13802947 0.02567465 -0.21327443
-0.044116877 -0.09116708 0.122126326 0.16055161 0.15206762 0.08211437 -0.069434 -0.052766744
0.043649398 -0.11585603 0.06928772 -0.054015663 -0.036960788 0.07524891 -0.07059639 0.07650138
0.10214444 0.1502256 0.26593393 0.1858474 -0.111850485 -0.1261696 0.003609934 -0.045688186
-0.17255503 -0.13730493 -0.073044 0.27407086 0.18165593 -0.060616586 -0.08132853 0.111017495
0.013556643 -0.23237097 -0.018624475 -0.019032111 0.070243835 0.017784916 0.038126644 -0.020429833
0.006309129 0.007315465 -0.025580717 -0.006578616 -0.21277002 0.049295127 0.22335479 -0.010084796
0.008916366 -0.012557069 0.17137016 -0.016788986 -0.2381208 0.26326346 0.06687334 0.18545194
-0.044845104 -0.030989358 -0.052042253 -0.24231894 0.005401021 -0.13786013 -0.101061724 -0.051122084
-0.012829874 -0.13326056 -0.10109508 -0.015181997 -0.06541688 -0.092060044 -0.03636786 0.1363977
-0.060809918 -0.021237947 0.047436055 -0.048205625 -0.044511218 -0.12818874 0.19357839 -0.082846925
-0.09889124 0.041541297 -0.063033804 0.026439564 -0.031158999 0.083170764 0.14421664 -0.02555928
0.20670617 -0.16858552 -0.06378713 -0.10355535 -0.084222704 -0.09601809 -0.07437987 0.23593329
0.18582286 0.24056917 -0.032452624 -0.28603274 0.062191397 0.0066505107 0.05259302 0.09325051
0.036579534 0.26460028 -0.17129722 -0.19017467 0.089625806 0.28425744 -0.015575943 -0.051554114
-0.011912997 0.20572796 -0.09874734 -0.20763671 0.025462514 -0.050228607 -0.083672956 -0.039732803
0.101777196 -0.0025453365 -0.11658688 0.19871409 0.021158028 0.0048353383 0.022568867 0.053994812
0.08184488 0.09902745 0.075382896 0.15194063 0.12026842 -0.03529251 -0.043829847 0.079322234
-0.14814572 0.13552403 0.072071336 -0.078855224 0.21432552 0.063512936 -0.0559757 0.039853446
0.0778967 -0.10157995 -0.0012825591 0.0046719 0.034468945 -0.03200743 -0.088472 0.1415541
0.12059215 0.17370826 -0.11449223 0.061845474 0.110969715 0.16108516 -0.17442803 -0.2529656
-0.06750118 -0.020778311 0.109779336 0.09011128 -0.1740214 -0.25443575 -0.19025087 0.19830155
0.15053217 0.11599554 0.012414524 0.011934439 0.16313434 0.05661107 0.032957718 -0.014105302
-0.013675041 -0.028715411 -0.19385521 0.11586529 -0.090933844 0.03419034 0.0037065453 -0.025204144
-0.020330386 -0.10696831 0.08869128 -0.043518063 0.10060991 0.03253624 0.027496435 -0.2290611

bn1.running_mean f4 [45]
00000000: 0400 0000 6d8c 3f3f 07e6 6e3f 1ed9 133f
00000010: 231a 4f3f 484f 9f3f c955 8d3e 17bc 8e3f
00000020: 4f0f 643f 7f59 863f 0400 0000 450c 6440
00000030: ad31 5540 0400 0000 0400 0000 bd1e 2d40
00000040: c5f3 6b3e 421c 0b3d 2e42 ec3f 8b19 313f
00000050: ab49 423e 9aec 913f 7b48 ad3e 3a53 8e3e
00000060: 6ec5 993e 0400 0000 eb75 603f ba6d 3140
00000070: 8612 813e 8944 033f 29d3 b63f f302 e33f
00000080: dc40 1e3f 0205 c53e da0f 3c40 a749 c03f
00000090: 2f80 5b40 116a 043f 2bb2 103f ed4b a740
000000a0: edc2 803f a837 ca3e 5536 e83e 5a8e 613e
000000b0: 61f6 b43e
6e-45 0.7482365 0.93319744 0.5775317 0.80899256 1.244607 0.2760451 1.115115
0.8908586 1.0496062 6e-45 3.5632489 3.331157 6e-45 6e-45 2.705001
0.2304221 0.033962496 1.8457696 0.691796 0.18973415 1.140033 0.3384436 0.27797872
0.3003344 6e-45 0.8767993 2.7723222 0.25209445 0.5127645 1.4283191 1.7735275
0.6181772 0.38480383 2.9384675 1.5022477 3.4296987 0.51724344 0.5652186 5.2280183
1.0059487 0.39495587 0.45353952 0.22026959 0.35344222

bn1.running_var f4 [45]
00000000: 0400 0000 05cc 3d41 de90 1941 946b 1941
00000010: 5785 e640 e59c bc41 5353 973f c140 8441
00000020: 35b3 9c41 bf17 ce41 0400 0000 8974 8b42
00000030: 58ca c742 0400 0000 0400 0000 4301 b542
00000040: 6d3f d23f 009d c13e 214d e341 426a 8241
00000050: c6a3 773f f8db be41 e3c2 4040 db3c 6440
00000060: 8469 1440 0400 0000 52a7 1940 4fab 8142
00000070: 7a29 8340 0ee2 0341 b851 4a41 c854 a441
00000080: 9a63 3c41 a286 c240 d7ba b042 fda1 1f42
00000090: 7f97 ef41 7d0f 0641 ee20 7940 7567 fb42
000000a0: 0070 7641 4a42 fa40 9469 3f40 59d1 a83f
000000b0: 7a42 0c40
6e-45 11.862309 9.597868 9.588764 7.203777 23.576609 1.1822304 16.531618
19.587503 25.761595 6e-45 69.72761 99.8952 6e-45 6e-45 90.502464
1.6425606 0.37815094 28.41266 16.301884 0.96734273 23.857407 3.011895 3.5662143
2.3189402 6e-45 2.4008374 64.83459 4.098813 8.242689 12.644951 20.541397
11.774317 6.0789347 88.36492 39.90819 29.948973 8.378781 3.8926349 125.702065
15.402344 7.820592 2.990819 1.3188888 2.1915574

conv1.weight f4 [45, 45, 3, 3]
00000000: b50e 9abb 91eb a0bc b99a 16bb 6a5e 63bc
00000010: 56ab 84bc 3bcf 91bc 213a 5fbb 5151 61bc
00000020: 70ab fbbc 8b29 a03b 790c 68bb 8fdf 24bd
00000030: c8bf 4ebc 54a2 b8b8 b862 5fbb e3ee 863a
00000040: 9a64 55bc 3ea9 74bc a12f e6bc 9978 863c
00000050: 3507 bbbc c3ab 0ebd 4d6d 313c f580 f2ba
00000060: facd 87bc 7b29 bd3c 94d7 b43c c32a fabb
00000070: 0920 923c e066 c4bc c907 e4bb dd22 033c
00000080: 469a 96ba 5c5a e3bc d228 783c 801c 3cbc
00000090: 33b3 01bc 63d4 b73a 9772 b3bb 2073 4bbc
000000a0: f259 99bc 9e38 82bc bd6d f0bb 0fd7 023c
000000b0: 02db 61bc 8e46 4abc df28 71bc 1787 0ebc
000000c0: b716 7c3b 82e0 66bc 5698 6f3c d667 52bb
000000d0: 2230 78ba 9fcc 78bb 88b0 afbc 0ffd a7bc
000000e0: c397 ecbc 9d92 88bc 8eb7 d3bb 358b 0ebd
000000f0: c13d b7bc aed0 7dbc b5a5 00bc bd84 cfbb
00000100: 9129 49bc 7756 bebc 5e4c 4dbc ed5b d2bc
00000110: eaa9 1fbd cc5e 2fbb 3a6f bcbc a93d fcbc
00000120: daaa 02bc 84d4 d1b9 dde5 a13a dbd4 b0bc
00000130: fbec a6bc fd87 e03b 9a2f 83ba 3055 a7bc
00000140: b2f0 68bb a31c 2cbc 2228 a03b 91d3 1abc
00000150: f747 3fbc fa37 02bc 0d58 1fbb 5b99 20bc
00000160: 4fd9 c33b 2731 fdba b5d0 c2bb 879d 09bb
00000170: 70a8 d03b 9ce9 983c ee16 6bbb eead fd3b
00000180: ff21 acbb 4260 8bbc 7496 923c e6a9 42bc
00000190: cf09 65bc 7201 303c 039e 5bbc e6da ab3a
000001a0: 0f7d 913b 07c2 59bc 3e25 e0bb b92a 213c
000001b0: bdf5 eabb 2240 08bc d373 683c dbfe ac3b
000001c0: 1986 8abc a6bc 7d3b fdc7 0fbc 57f8 193b
000001d0: eb2d 573c 21fb b0bc 1e84 bcbc eba8 8938
000001e0: 6b13 41bc 5875 9fbc 1986 a43b 56b8 77bb
000001f0: 2b21 77bb f6a2 b53a 3bd8 26bc 6ff7 00bc
00000200: 3eba cebc 532f 92bc 0526 a3bc 0997 19bc
00000210: 5fe7 f4bb 26d9 d439 96d2 5bbc c089 d0bc
00000220: cb68 273c e2e4 d7bb ba4f 14bd 56d7 63bc
00000230: 9d9c 61bc ec12 f5bc 057d 02bb 4d69 acbc
00000240: 1850 e43b 4ad2 3fbc d722 82bb 13b5 0e3c
00000250: 2ef5 e1bb 1186 8ebc 880c 93bc 793e 4ebb
00000260: d3ee 36bc 9ad1 0bbc ff00 a63b 2337 71bc
00000270: 653e b1b9 8c6b de3b 190e c2bc cb3e 7fbb
00000280: b7b9 eebb ba12 70bc 1dfd 42bc 944f efbc
00000290: 0731 58bc 5359 043c 4a11 76bc baff 07bd
000002a0: d2a0 65bc 8305 91bc 6a40 e8bc 50d4 a9bb
000002b0: 4019 b7bc eb53 57bc 797c 203c 9e5d 4bbc
000002c0: 9c68 353c bcb5 ff3b 3d25 593a 4d42 4a3c
000002d0: 342e c03a 6991 edbb eed7 44bc bcf5 f63b
000002e0: a005 75ba 8790 3b3a d719 6e3b 27f0 b93b
000002f0: 9161 893c 4533 98ba 66b1 2ebc fed0 d5bb
00000300: 112a b5bc f12f cc3a d944 7fbb 8593 20bc
00000310: 0c50 96bb 9c75 80bb f196 d6bc 5786 9abb
00000320: 2ffa 14bc bb24 3e3b 0934 82bb 8634 9fbb
00000330: 7030 37bc 1743 533c cda8 5aba e270 003b
00000340: 8994 13bc 9530 ffbb 6a05 8fbc c863 59bb
00000350: 044e 9abc b70b 833b 1c82 cebb 60a9 0b3a
00000360: 2108 b2bc f9aa babc 61fd a6ba 4611 39bc
00000370: 57da c4bc c04b 4d3c ac49 d6bc 4807 b0bb
00000380: e360 303b bb4c be3b dde8 adbc 7698 043c
00000390: b889 2e3c 383b 82bb bdc1 6d3c d321 7d3b
000003a0: 5fff 9c3c 8ef0 e63a 8f8d 5e3c eca7 0c3b
000003b0: c4f8 56bc 874f 46bb bf37 57bb ab96 51bc
000003c0: 4cbc 3d3c 0ab8 cebb f62d 76bc 8c16 42bc
000003d0: c7c0 76bc 61cc 6fbc 5cd0 4abc bbc1 0fbc
000003e0: 16ef cbbc ea7f 01bc 953f 2abc ce06 2fbc
000003f0: 0b84 863b 9a10 debb 25e5 3a3c d72c 67bb
-0.0047014602 -0.019643577 -0.0022980405 -0.013877491 -0.01619498 -0.01779901 -0.0034061747 -0.0137522975
-0.030721396 0.004887765 -0.0035407825 -0.040252265 -0.012618966 -8.80404e-05 -0.003408594 0.0010294582
-0.013024474 -0.014932929 -0.028098883 0.016414927 -0.022830585 -0.034831773 0.010829282 -0.0018501567
-0.01657771 0.023091068 0.022075452 -0.007634492 0.017837541 -0.023974836 -0.006958936 0.0080039175
-0.0011490069 -0.027753048 0.015146451 -0.011481404 -0.00791626 0.0014025088 -0.0054763067 -0.012417585
-0.018719647 -0.015896138 -0.0073373006 0.007985844 -0.013785126 -0.012345923 -0.014719217 -0.0086992
0.0038465688 -0.014091613 0.014623722 -0.0032105348 -0.00094676216 -0.003796376 -0.021446481 -0.02050641
-0.02888096 -0.016671473 -0.0064610904 -0.034800727 -0.022368314 -0.015491648 -0.007852008 -0.0063329623
-0.012277977 -0.023234589 -0.012530414 -0.0256786 -0.038980402 -0.0026759384 -0.023002256 -0.03079112
-0.0079753045 -0.00040021923 0.001235183 -0.021585872 -0.020376673 0.0068521486 -0.0010008693 -0.020426363
-0.0035543856 -0.010504874 0.0048875967 -0.009449855 -0.011674873 -0.007947916 -0.0024313957 -0.009802188
0.005976833 -0.0019317017 -0.00594529 -0.0020998435 0.0063677356 0.018666081 -0.0035871821 0.0077416813
-0.005253076 -0.017013673 0.017894007 -0.011881327 -0.013979389 0.010742532 -0.013404372 0.0013111501
0.004439957 -0.013290889 -0.006840377 0.009836846 -0.0071704076 -0.008316072 0.014187771 0.0052794046
-0.016909646 0.003871718 -0.008775708 0.002349397 0.013133506 -0.021604123 -0.023012217 6.5641325e-05
-0.011784415 -0.019465134 0.0050208685 -0.0037799082 -0.0037708979 0.001385777 -0.010183389 -0.007871493
-0.025235292 -0.017844832 -0.01991559 -0.0093743885 -0.0074738706 0.0004059758 -0.013416907 -0.02545631
0.010217856 -0.0065885643 -0.036208846 -0.013906321 -0.01377025 -0.02991625 -0.0019910943 -0.021046305
0.0069675557 -0.011707852 -0.0039714384 0.008710164 -0.006895683 -0.017397912 -0.017950311 -0.0031470342
-0.011165339 -0.00853386 0.0050660367 -0.014722618 -0.00033806558 0.006787723 -0.023688363 -0.003894734
-0.0072853225 -0.014652902 -0.011901167 -0.02921275 -0.013195283 0.008077937 -0.0150187705 -0.033202864
-0.014015393 -0.017702824 -0.028351028 -0.0051827803 -0.022350907 -0.013142566 0.009795302 -0.012412457
0.011072304 0.007803647 0.0008283442 0.012344909 0.0014662207 -0.0072500003 -0.012014372 0.007536618
-0.00093468465 0.000715502 0.003633132 0.0056743803 0.016770156 -0.0011611959 -0.010662412 -0.006525158
-0.022114785 0.0015578252 -0.0038950949 -0.009800796 -0.004587179 -0.00392027 -0.026195021 -0.0047157216
-0.009092852 0.0029013592 -0.003973488 -0.004858556 -0.011180982 0.012894413 -0.00083411933 0.0019598533
-0.0090075815 -0.007787774 -0.017458636 -0.0033171047 -0.018836029 0.0039991993 -0.0063021313 0.0005327668
-0.021732392 -0.022786604 -0.0012740308 -0.011295622 -0.024029894 0.012530267 -0.026158176 -0.0053719617
0.0026913218 0.005807487 -0.021229202 0.00809299 0.010652952 -0.0039743446 0.014511523 0.0038624897
0.01916474 0.0017619298 0.013583555 0.0021462394 -0.013120834 -0.0030259804 -0.0032839624 -0.01279227
0.011580538 -0.0063085603 -0.015025606 -0.011846196 -0.01506061 -0.01463613 -0.012378778 -0.008774216
-0.024894278 -0.007904032 -0.010391136 -0.010682775 0.004105096 -0.0067768814 0.011407171 -0.003527453

bn2.running_mean f4 [45]
00000000: 8e0e 0d40 8e08 3b40 eec3 733f d450 8c3f
00000010: 2c70 b13f 0c21 8640 621a 1340 81da be3f
00000020: a3c3 f83f 08eb d23f 8151 1140 ef42 2a3f
00000030: babf 0940 e932 9a3f 613f f63f e413 0c40
00000040: ec09 823f e3e7 2a40 9397 1d40 8864 4940
00000050: 1a70 853f 0dec 2d40 a109 1240 33ab 9b3f
00000060: e1ae 3e40 12de 3440 5aea 7540 efa6 503f
00000070: 247f fc3f cc85 8140 ccf6 3440 12c1 ac3f
00000080: d567 7540 9e5e 9440 ee9d d43f 7c35 e23f
00000090: 7c28 1a3f 02bc cf3f 6aab ca3f 47b6 f73e
000000a0: 9f57 3d3f 216d ea3f ffcf 5a40 128d 1b40
000000b0: 0ce8 ed40
2.2040133 2.9223971 0.9522084 1.0962167 1.3862357 4.191534 2.2984853 1.4910432
1.9434704 1.6477976 2.2705996 0.6650838 2.152327 1.2046787 1.9238092 2.188714
1.0159278 2.6704032 2.4623764 3.146761 1.0424836 2.7175324 2.2818377 1.2161621
2.9794238 2.826054 3.8424287 0.8150472 1.97263 4.0475826 2.8275633 1.349642
3.8344624 4.63655 1.6610696 1.7672572 0.60218024 1.622925 1.5833561 0.48381254
0.73961824 1.8314553 3.418945 2.4304852 7.434576

bn2.running_var f4 [45]
00000000: d70e ff3f e1d6 3540 3cd1 3c41 6c8c 0f41
00000010: 1b96 0242 2e87 9341 2db8 1f40 4edf 9441
00000020: cbf2 9b40 263b a340 28fd 0b40 32e0 0741
00000030: b888 2741 a770 8641 6f58 4341 c08e 4a40
00000040: a599 ce40 7f88 1840 ecc9 f840 3c3d 1a41
00000050: 6bfb 8640 8129 e941 e95c a840 fde5 9f41
00000060: a8ae b840 483b 7440 918f 0941 e044 3341
00000070: d784 0d41 253f a740 58a7 8240 e619 d641
00000080: b8b8 c240 c9df e140 b017 2a42 3c10 1b40
00000090: 4b08 d940 c657 c740 e7db 0742 6eac c740
000000a0: 3f02 3841 3fab 6742 b6e9 7140 bc43 ab40
000000b0: 325c 5141
1.9926404 2.8412402 11.801083 8.971783 32.646587 18.441006 2.4956162 18.609035
4.873388 5.1009703 2.1873264 8.492235 10.470879 16.805006 12.20909 3.1649628
6.4562554 2.383331 7.7746487 9.63995 4.2181907 29.145266 5.2613416 19.987299
5.7713203 3.8161182 8.59755 11.204315 8.844932 5.226458 4.0829277 26.762646
6.0850487 7.0585675 42.523132 2.4228659 6.7822623 6.2294645 33.96475 6.2397985
11.500548 57.917233 3.7798896 5.3520184 13.085009

conv2.weight f4 [45, 45, 3, 3]
00000000: 7db9 51bc 5fbd 76bc 9baa 54bc 9865 65ba
00000010: 9171 8c3b 0eb9 c4bb 77f6 5ebc 8c8c 4d3c
00000020: 3c2b 48bb 3fcf 25be ab5e 06be 43b9 52be
00000030: aa32 62be 58fb eebd 736f 34be 194b 11be
00000040: f2ad 04be b1db 10be 2153 b2bc c6c2 4abc
00000050: e21f 17bd 376a 073e 4be3 173d 2eb8 0e3b
00000060: 1532 313e 5cf4 633d f7ce 063d 3fc2 e03c
00000070: 1c0c 62bd 09dc ec3b d734 cfbd 7d10 9f3d
00000080: 965d 333d 3e1a 3bbe 7436 f73d 7083 753c
00000090: 9704 d1bd bb29 acbd a1e1 85be ae6f ddbc
000000a0: e1ea 6ebb 7379 37be a12e 04be 3ceb 3dbd
000000b0: d6ae 31be 1424 b6bd 7eec b0bd 4e17 cdbb
000000c0: d5ab e3bd 9683 dcbd 45ee 1a3c dcba cbbd
000000d0: fde5 cbbd 60f9 a93c 38a5 0e3d f161 58bd
000000e0: f768 f6bd de9a 9c3c 047a bcbb 99a1 b1bc
000000f0: 5175 2b3d 6f3a b33d 126e 1abd 85bc 33bd
00000100: 115d e53d b8cc 44be d35a ab3d a233 553d
00000110: 5582 16be 0a69 ce3d c1df 323b 3947 3dbe
00000120: 96aa 20be 0bc5 96bc 3063 f43d a539 69bd
00000130: 5ae0 073c 3257 b43d 4f8a bd3b f479 9ebd
00000140: 5650 0f3d 4ae0 9c3d 118e 2a3e 1fb7 9a3d
00000150: a6c2 783d 00cd 1d3e 607d b53d 617f ea3b
00000160: 8c0c d63d 6d87 323d 5305 a33b 01e9 89bb
00000170: ef64 173b 9922 6b3c 847d b9bb 69b3 debb
00000180: 4652 9a3c 4f20 0c3b ed97 03bc 1063 bfbd
00000190: b89a d2bd 0a23 c9bd 504c b4bd 2c26 1cbe
000001a0: d11c bcbd 1d97 bcbd 69b7 74be 060c 06be
000001b0: a13a ad3d ca41 4c3d db1f 05bd 878d 603d
000001c0: 497a 053b f588 22bd 4f27 78bb 5a68 93bd
000001d0: fe93 dcbd 07c6 8f3b 5794 1d3c 319f 9aba
000001e0: f872 52bb f45b dfbb 50fb 23bc 69d1 6ebc
000001f0: b04f a83b 182f ff3b 7ff8 b3bc 35bd 693b
00000200: 6c15 60bb f0a0 30bc 856a 89bb 6a6a c43b
00000210: 3f78 4c3c 0ffd a6bc 0a46 4ebc c138 403c
00000220: 165e d4bd db4c 89bc ff76 123d d76a 9dbd
00000230: 0d0e 813c 2f7f e03b c597 15be e741 31bd
00000240: 1b0a 213c 1120 dcbe 6343 a13d 5c7c 1c3d
00000250: 7e85 0fbd cbac d13d fa63 c83d 3d5d d23c
00000260: d62f c93d 386e c4bd 96d3 87bd 8e40 e9bc
00000270: 72e4 17bd b54d 31be 3e9d 2cbe ea0b 1bbd
00000280: 6574 5abe ba47 88be 5fd0 ee3d 2d62 5b3e
00000290: 0862 e13c e96f 013e db3f 453d 3d77 5a3d
000002a0: 5092 853d 6962 0cbe 4cab 05be 1b93 bdbe
000002b0: b5bd 22be 855b 33be d445 adbe 31bc 46be
000002c0: a902 70be 92ad 9abe 70bd 4cbe 74b8 95be
000002d0: cd56 8cbd eb6b 253e fc2d d3bd 154d 27bd
000002e0: ecf6 f33d e1b9 87bd ff25 7abd 0b5f cb3d
000002f0: 67d5 2e3d c458 7d3e c902 01be 5cca 30be
00000300: bc2f 483e fc65 11be 64a6 57be 49ce 783e
00000310: a8dd fbbd da30 58be 6bfe b5be 2c96 31be
00000320: 8656 24be 680a babe 432f 04be c432 cfbd
00000330: 482b 25be d85a 203d 66cb 48bd ee64 08be
00000340: fd09 12be 815d ebbd 8c0e 26be 3988 aebd
00000350: ee12 67be 12cb 8fbe 688c 83bd 2e84 9cbe
00000360: ff68 a7bc b8c5 7ebd 1b80 c6bd dc46 2f3d
00000370: ef04 a43d 7d76 8abd 7a53 933b ab5d 263e
00000380: 2a57 2d3d 6fbf 27ba 7edb b9b9 741d babb
00000390: 146d 28bc 05cc c53b eae4 c1bc 774a 9ebb
000003a0: 74e8 e1ba 9194 a0bc b341 713d a272 1f3e
000003b0: 671c a7bd 5168 d63d 054c 6a3d f03b 08be
000003c0: 4668 0f3d f379 7cbb 5d28 bfbd f9ce 05be
000003d0: 0ea9 abbd 2c8a 0abe 7153 e8bd baf2 fbbd
000003e0: b56c 07be b78e 0dbe 3c49 2ebe 5b1d f0bd
000003f0: 15bb 6abe 3ecf 1dbe c7f8 f83d 67b6 7cbe
-0.0128005715 -0.015059798 -0.012980129 -0.00087507954 0.004285999 -0.0060035056 -0.0136085665 0.012545716
-0.0030543348 -0.1619234 -0.1312205 -0.20578484 -0.2208964 -0.11669034 -0.1762064 -0.14188804
-0.1295698 -0.14146306 -0.021768155 -0.012375539 -0.03689564 0.13224111 0.037081998 0.002177726
0.17304261 0.05565296 0.03291222 0.027436374 -0.05518733 0.0072283787 -0.101175 0.07766817
0.043790422 -0.1827173 0.12070933 0.01498495 -0.102059536 -0.08406397 -0.26148704 -0.027030792
-0.0036455917 -0.17917423 -0.12908413 -0.046366915 -0.17351851 -0.088936 -0.08638857 -0.0062588817
-0.11116759 -0.107672855 0.009456222 -0.0994775 -0.09955976 0.020748794 0.034825534 -0.05282778
-0.12031739 0.019116815 -0.00575185 -0.021683501 0.04185993 0.0875138 -0.037702627 -0.043880958
0.11199392 -0.19218719 0.08366933 0.052051194 -0.14698155 0.10078628 0.0027294012 -0.184842
-0.15690073 -0.018404504 0.11932981 -0.05693974 0.008293236 0.08805694 0.00578431 -0.077381045
0.034988724 0.07659967 0.16655757 0.07554459 0.060732506 0.15410233 0.08861804 0.007156298
0.10451612 0.043586183 0.004975 -0.0042086844 0.0023100933 0.01435151 -0.0056607146 -0.0067962897
0.01883806 0.0021381562 -0.008031827 -0.093450665 -0.102834165 -0.09821136 -0.08803618 -0.15248936
-0.09185184 -0.0920851 -0.2389809 -0.13090524 0.08458448 0.04986743 -0.032501083 0.05482247
0.0020367077 -0.039681394 -0.0037865227 -0.07197638 -0.10770415 0.0043876204 0.0096178865 -0.001179671
-0.0032111984 -0.0068163816 -0.010008648 -0.014576294 0.0051364526 0.0077875964 -0.021969078 0.0035665755
-0.0034192456 -0.010780558 -0.0041936063 0.005994131 0.012479841 -0.02038434 -0.012589941 0.011732281
-0.10369508 -0.01676028 0.035758015 -0.07686394 0.01575377 0.006851099 -0.14608677 -0.04327574
0.0098290695 -0.42993215 0.07874181 0.038204536 -0.035039417 0.10238036 0.09784694 0.025679225
0.09823577 -0.09591335 -0.06632154 -0.028473165 -0.037083097 -0.17314799 -0.16856858 -0.03785316
-0.21333463 -0.26617223 0.116608374 0.2142417 0.027512565 0.12640347 0.0481566 0.05333637
0.065220475 -0.13709415 -0.13053626 -0.37026295 -0.1589268 -0.1751538 -0.33842337 -0.19407727
-0.23438515 -0.3021055 -0.1999414 -0.2924229 -0.068524934 0.16154449 -0.10311505 -0.040844996
0.11912331 -0.066272505 -0.061071392 0.099302374 0.042683985 0.24740893 -0.12598719 -0.17264694
0.19549459 -0.1419906 -0.21059567 0.24297442 -0.12298137 -0.21112385 -0.35545668 -0.17342442
-0.16048631 -0.36336064 -0.12908654 -0.10117105 -0.16129792 0.039149135 -0.0490221 -0.13319752
-0.14261623 -0.11492444 -0.16216487 -0.08522076 -0.22565815 -0.28084618 -0.06423265 -0.30569595
-0.020435808 -0.062200278 -0.09692403 0.042792186 0.080087535 -0.06760881 0.004496035 0.16246669
0.042319454 -0.000639907 -0.00035449484 -0.0056797806 -0.0102799125 0.006036284 -0.023668725 -0.0048306542
-0.0017235414 -0.019602092 0.058900546 0.15571073 -0.08159714 0.104691155 0.057201404 -0.13304114
0.035011552 -0.0038524836 -0.093338706 -0.13067235 -0.08381854 -0.13529271 -0.1134404 -0.12302156
-0.13225062 -0.13823973 -0.17020124 -0.11724349 -0.22922929 -0.15411088 0.121568255 -0.24678956

bn3.running_mean f4 [45]
00000000: 4b29 9240 85c1 c73f facc 643f d1a8 a23f
00000010: a23c 633f e510 723f 6a22 9f40 238a 2e40
00000020: 15ad 6e40 1508 953f 7557 903f de6b 5640
00000030: 628d 533f c714 593f 807c da3f c5cd 3440
00000040: 384f 8840 4957 3e40 4992 0540 ee87 f240
00000050: e640 ce3f 77f0 9340 0517 a23f 2e18 e23f
00000060: 039c af3f 05cf 4540 1057 0140 c40b e73f
00000070: dc9f 6d40 ca96 d53f 6ea9 9f40 8256 5740
00000080: 7c19 8840 2414 1c40 1ae0 803f dba8 cb3f
00000090: 1e19 5840 596f 933f 437f e13f ff2c 8b3f
000000a0: 0711 0e40 4905 693f 888c e43f 6c13 e23f
000000b0: 4de7 843f
4.5675406 1.5605932 0.8937527 1.2707769 0.88764393 0.9455703 4.972951 2.7271812
3.729314 1.1643091 1.127669 3.3503337 0.8263761 0.8479733 1.7069244 2.8250592
4.2596703 2.9740775 2.0870535 7.579093 1.6113555 4.6231036 1.2663275 1.7663629
1.3719486 3.0907605 2.0209389 1.8050466 3.712882 1.6686642 4.9894323 3.364655
4.253111 2.4387293 1.006839 1.5910906 3.376533 1.1518356 1.7616962 1.0873107
2.2197893 0.9102369 1.7855387 1.7662177 1.0383087

bn3.running_var f4 [45]
00000000: c792 c442 6376 0641 68b7 8040 bf54 c340
00000010: a45f 9540 599e 5c40 f7a9 c141 6117 1a42
00000020: 65d3 4042 f59d 3541 f5e9 b140 4d95 9741
00000030: 37c7 2141 b9f3 8340 28bd 2a42 e87b 0f41
00000040: e25b 7942 c90f e341 f73c 1641 84ef 5243
00000050: 6e95 0841 e8b3 ac42 3ab4 f340 f404 e641
00000060: 36c7 5d41 9402 f041 314a 1f42 b10a 8141
00000070: 14c1 9641 9ea9 9441 9bd0 ed42 2187 9a41
00000080: 2f4e 9e42 53ca 1a42 9fe3 2f40 e034 1141
00000090: 7ab7 6b42 aefe 8541 c053 b840 1182 c340
000000a0: ab8e 0f42 1f5b 8940 710b 5e42 cc71 8041
000000b0: 149f d040
98.286674 8.403903 4.0223885 6.104095 4.667925 3.4471648 24.20799 38.52283
48.20644 11.351064 5.559809 18.9479 10.111136 4.1235013 42.684723 8.967751
62.33973 28.382708 9.389884 210.93561 8.536482 86.35138 7.6157503 28.752419
13.8611355 30.001259 39.822453 16.13022 18.844276 18.58282 118.90743 19.31598
79.1527 38.697582 2.748268 9.075409 58.929176 16.749355 5.7602234 6.1096272
35.889324 4.292373 55.511173 16.055565 6.5194187

conv3.weight f4 [45, 45, 3, 3]
00000000: c194 87be e53e 0abd 4150 c03d b9a5 81be
00000010: b3f6 8abd ede4 c83d 913b 0dbe 1e22 dfbd
00000020: 0896 633d 055c ef3c b5bc 113d 96b7 d93d
00000030: b7bd 833d 4dba 913c 8bee 823d 5548 a33c
00000040: 3c7c a5bc 7cfb a23c 06de 28be 64c0 45bd
00000050: 4aa2 f7bc c530 a53a 1ff2 da3c f9cc 893d
00000060: 410d f6bd 7242 6fbd 7880 0ebd 2573 c5be
00000070: 4847 133e 0190 7abe 455c 9dbe e605 ee3d
00000080: 025d 74be a9c7 91be f4ba f23c 9642 67be
00000090: 6cd2 3c3c 49f9 0f3e 05aa a5bd ce61 063e
000000a0: 8200 3f3e 394c b43b 65cd 3a3c 6a94 8e3d
000000b0: d3fb 2a3b 3591 7f3e 07f4 c5bd 2540 fc3d
000000c0: 5ebd c13e a23e b2bd 8faf 4c3e 86d9 963e
000000d0: aee1 01be 7901 243e 8e14 3a3e e771 493c
000000e0: 7f01 033e 1011 283d a4ce 5c3d 8992 083e
000000f0: e250 f9bd e53c 1b3d 7585 c43d 10ee 06be
00000100: 5cb5 0dbe d548 2e3d 06ed a93d 3536 263d
00000110: aaf1 8b3e 7953 623e 1236 c53d 92df c63e
00000120: 5bb4 a83d a1e2 bbbe b7e4 843e b0f1 393e
00000130: 515d 56be 98f9 b13e f6ef 093e 7246 2ebe
00000140: a7d2 603e 7b8c 9a3e a424 5a3e 99c6 21bc
00000150: e5d3 8c3e 445f 633e afdd 6d3d b24e b63c
00000160: 3268 573d c5cd f9bb b122 843c 5a05 e43d
00000170: 68b8 29bb a316 8cbc 43ff 813d 227d b43d
00000180: 4926 53bd 2de4 0abd 0fdf 0d3e 7c6f debc
00000190: 0616 493c 857e 913d a99c 063b 9299 583d
000001a0: b55e 153e c5a8 403a 34bd 0b3d ef03 1d3e
000001b0: 7e4c 693e 2430 3a3e 6440 11be 944c 863e
000001c0: cdab 4b3e 0dea fabd 20e1 503e c49a 093e
000001d0: a60b 2abe ea68 0c3e 81b6 33bd 1151 84bd
000001e0: a348 023e 9046 d8bc ef71 eebc 4507 5abc
000001f0: 94ac 93bd 2ced 2abd 7b46 883e 1a02 b43d
00000200: 7a3e 3f3e 5645 9d3e a8c8 273e 35da 863e
00000210: 8aaa 8f3e bbb0 423e a669 843e 7788 80be
00000220: f5b5 2ebe ccc1 d83d 6920 45be dbad d8bd
00000230: deef 993d b090 f8bd 4b00 dbbc bde1 4f3c
00000240: aff5 633e 43e9 973d 1bdb a03e ae3c 733d
00000250: 4363 8abc 9b52 3c3e b65d 2abe 130e 18be
00000260: 9c8a c4bc 449a 763c 295b 353e 3ae9 653e
00000270: c356 6b3d 9e03 ea3d 8ca2 0d3e da85 11bc
00000280: 8cc9 7e3d 809e c03d 9403 3e3e 2537 bbbe
00000290: f7ed e0bc 5cfb 053d ffd0 59be 18cf d3bd
000002a0: 05e7 6ebe 8283 b2bd c3ab 0cbe de48 a93d
000002b0: 8d60 ca3d 97c4 2f39 8cbf 033e 3665 1e3e
000002c0: 4635 3d3d 46a0 ea3d bda1 673d f7ff a83d
000002d0: 7f10 abbc 5cdb 23bd 7ffd 8e3c 1090 c83d
000002e0: 04e7 0fbd 9cdc 7c3d cedc a23d 0c59 2abe
000002f0: d810 3fbd ce43 383d 0e2b 69bd 0424 82bc
00000300: 5407 0d3d 8bd1 d6bd b103 3fbd 5bc1 20bd
00000310: 0bac 00be 143e c5bd 7e12 633e bde5 d93d
00000320: edb2 32be 8cc6 323e 0b04 1dbc 1650 6bbe
00000330: e93b a13d 55ab e7bd 4bbe cebe 0eaa 9c39
00000340: 5675 863d 60eb 07be 7bb4 783c e0b1 bb3d
00000350: 3280 d1bd 40a0 6abd 20ff a63c 6a48 f5bd
00000360: 5eb5 0c3c a087 923e faf6 73be fad5 b4bc
00000370: d6d8 373e d452 9abe 7ce4 c23c 3de8 aa3d
00000380: 125b aabe a043 92be 5d87 8c3e 75ea bfbd
00000390: cca8 90be d1ca 653e 1443 aabd 5397 15be
000003a0: 44b0 1c3e a52a 8ebd 7fb0 5a3e 786d 283d
000003b0: 4ce0 0ebe 0913 9f3e 1fa6 3fbd 82f9 6abd
000003c0: 1e74 913e 306b 9dbd 9f3d 02bb 9dea 5bbd
000003d0: b569 563c 5992 f1bd 465c 80bb 586d 753d
000003e0: bcd1 8abd 14a3 f2bd 9d21 5b3c 81be cbbd
000003f0: c98f 6f3d 2c3a 04be c3dc fe3d 4426 f43c
-0.26480678 -0.033751387 0.09390307 -0.2532175 -0.067853354 0.09809289 -0.13792254 -0.10895179
0.055563003 0.029218683 0.035580356 0.10630719 0.064326696 0.01778903 0.06393155 0.019931952
-0.020200841 0.019895308 -0.16490945 -0.04827918 -0.030228753 0.0012603035 0.02672678 0.067285486
-0.12014247 -0.058412977 -0.034790486 -0.3856441 0.1438266 -0.24468996 -0.3073446 0.11622219
-0.23863605 -0.2847264 0.029630162 -0.22583994 0.011524778 0.14059938 -0.08089069 0.13123247
0.18652537 0.0055022505 0.011401509 0.069619015 0.002609004 0.24957736 -0.09665685 0.12316922
0.37839788 -0.087033525 0.19988845 0.29462832 -0.12683746 0.16016187 0.18171903 0.012295223
0.1279354 0.041031897 0.053908005 0.13337149 -0.1217363 0.03789987 0.095957674 -0.13176751
-0.13838714 0.042549927 0.08297162 0.04057904 0.27332813 0.22102155 0.09629454 0.38842446
0.08237525 -0.36696342 0.25955746 0.18158603 -0.20934035 0.34760737 0.13470444 -0.1701906
0.21955357 0.30185303 0.2130304 -0.0098740095 0.27505413 0.2220431 0.058072742 0.022254322
0.052589603 -0.0076234066 0.016129823 0.11133833 -0.0025897268 -0.017100638 0.063475154 0.0881293
-0.051550183 -0.03390901 0.13854621 -0.02715277 0.012273317 0.0710421 0.0020540154 0.05288083
0.14586909 0.00073493674 0.034115985 0.15333532 0.22783086 0.18182427 -0.1418472 0.262303
0.19889756 -0.12251673 0.20398378 0.13437945 -0.16606006 0.13711897 -0.04387522 -0.06460775
0.12723021 -0.026400834 -0.029107062 -0.013307397 -0.07210651 -0.04173009 0.26616272 0.08789463
0.18676177 0.30716962 0.16385138 0.26338354 0.28059798 0.1901273 0.25861853 -0.25104114
-0.17061599 0.10583839 -0.19250645 -0.10580035 0.07516454 -0.12136972 -0.026733538 0.012688098
0.2226169 0.07417538 0.31417164 0.05938404 -0.016893035 0.18390886 -0.1663731 -0.14849119
-0.023991875 0.015051428 0.17710556 0.2245225 0.05745579 0.11426471 0.13831538 -0.00888201
0.06220393 0.094052315 0.18556052 -0.3656551 -0.02745722 0.032710418 -0.21271132 -0.103422344
-0.23330314 -0.087164894 -0.13737397 0.082658514 0.09881697 0.00016762536 0.12866038 0.15468296
0.046193384 0.11456351 0.05655073 0.082519464 -0.02088189 -0.04000412 0.01745486 0.09793103
-0.035132423 0.061733827 0.079522714 -0.16635531 -0.046646923 0.04498654 -0.056925826 -0.015886314
0.034430817 -0.10489186 -0.04663438 -0.0392469 -0.12565629 -0.09630981 0.22175023 0.10639522
-0.17451067 0.17458552 -0.009583483 -0.22979769 0.07872755 -0.11311976 -0.40379557 0.0002988134
0.06565349 -0.13273382 0.015179749 0.09164786 -0.102295294 -0.057281733 0.020385325 -0.119767025
0.008588163 0.286191 -0.23824683 -0.022074688 0.1795381 -0.30141318 0.02379059 0.08345077
-0.33272606 -0.2856722 0.27447024 -0.09370891 -0.28253782 0.2244065 -0.083135754 -0.14608507
0.15301615 -0.069417275 0.2135639 0.041120023 -0.1395275 0.3106921 -0.046789285 -0.057366855
0.28408903 -0.0768646 -0.0019873155 -0.05369054 0.013086726 -0.11795492 -0.00391725 0.05991873
-0.06778285 -0.11847511 0.013374713 -0.09948445 0.058486734 -0.12912816 0.12444451 0.029803403

bn4.running_mean f4 [45]
00000000: 8a77 d63f f8cc d33f 2c45 0040 5a28 a93f
00000010: 73da b63f ad4d e43f e9d6 933f 7917 cf3f
00000020: 4773 5140 b474 df3f 5722 0040 ee96 1340
00000030: b30c ae3f 142f c33f cd75 8840 9d60 e93f
00000040: 93fb 1f40 245a cb3f 12c5 f23f 927d ca3f
00000050: 0b02 5f40 129e d73f 6b11 8f3f eaa2 3040
00000060: 5f12 0740 64d8 4740 8941 0c40 bec1 9f3f
00000070: 7360 3940 f9c3 a73f eff2 a13f bd2c ba3f
00000080: 91b6 bc3f 942b fb3f ff72 c03f 7ed6 2b40
00000090: 2664 d13f ab9c 943f 70ca 7940 472b 933f
000000a0: 31c1 893f 5f55 1940 0ae9 d23f e532 b83f
000000b0: 5bff 3840
1.675523 1.6546926 2.004222 1.3215439 1.4285415 1.7836205 1.154996 1.6179038
3.272661 1.745749 2.002096 2.306087 1.3597625 1.5248742 4.26438 1.8232609
2.4997299 1.5886884 1.8966391 1.5819571 3.4844997 1.6845114 1.117719 2.7599435
2.1104963 3.1225824 2.1915 1.2481 2.8965118 1.3106681 1.2652262 1.4544903
1.4743215 1.9622674 1.5035094 2.6849666 1.6358688 1.1610311 3.9029808 1.1497582
1.0762082 2.3958356 1.6477368 1.4390532 2.8905857

bn4.running_var f4 [45]
00000000: 3e28 8141 8fe8 f540 2f71 5941 87c5 9240
00000010: 081f b741 0b97 3242 97b0 9940 3fb0 6241
00000020: 9ede 4541 51af e340 ed04 b240 e616 9741
00000030: c6a3 f240 2d77 b640 a26d 6441 86a4 0441
00000040: 8923 3d41 a19d 6a41 7431 8341 cc15 b640
00000050: 4bb6 5741 e44b 8641 314d e540 2c0e fc40
00000060: 61db ce41 a496 2a41 dd3d e541 d934 0941
00000070: 20ac 0941 5582 4541 126e 2a41 096f 6641
00000080: 6714 9c41 6718 e740 ba5f 8241 724d 0741
00000090: ee07 0442 462f 4241 d9a9 8f41 434f 4d41
000000a0: 7a7b 5241 fe25 5b42 32a3 3c41 08d6 8f41
000000b0: 8d07 e441
16.14465 7.6846385 13.590133 4.586612 22.890152 44.647503 4.8028064 14.168029
12.36685 7.115151 5.5631013 18.88618 7.582492 5.702048 14.276766 8.290167
11.821176 14.663484 16.399147 5.6901608 13.482005 16.787056 7.165673 7.87673
25.857119 10.6617775 28.655207 8.575402 8.604523 12.344319 10.651873 14.402108
19.509962 7.221729 16.296741 8.456408 33.007744 12.136541 17.957933 12.831851
13.155146 54.7871 11.789843 17.979507 28.503687

conv4.weight f4 [45, 45, 3, 3]
00000000: 39e4 d73d 863d 5abb 55ce 0cbd 81a6 f63c
00000010: 69bf 883b d391 153d e63a 4f3d 1f02 733c
00000020: ade3 b2ba 50d8 c63d 1f5f 93bc 7bc0 6d3d
00000030: 48fe 7d3e dc8f de3d d50f 0d3e cd45 493e
00000040: a9af 733d 0b05 693d 1257 7cbe 180a 49bc
00000050: b663 863e c624 e43c 2122 df3d 47c4 813e
00000060: 7e5a 773e c368 6b3e 390a 26bd 3dfb 7e3d
00000070: 4876 f2bd f4ba c2bd c31e 28bd c8ec 51bd
00000080: 85c8 8ebe 0f7c a3bc 3552 65bd b002 31be
00000090: d05c dd3d 2c86 c33d 7342 833d b2c0 2c3d
000000a0: 7f65 a53d bd69 c03d b6d2 113d b7f1 9e3d
000000b0: b0ac 533e cf27 9b3d 7618 13be 5378 42be
000000c0: bbb7 193d 6e61 133d 0831 2cbe fa89 b03d
000000d0: eb01 813d 0c1d b6bd 449e f4bc 8fd1 ad3d
000000e0: ac84 b8bc e4ca 53be 1605 b9bd b2b5 b23c
000000f0: 3541 ccbd 6b60 88bd 07bd debc c198 a93d
00000100: 399f 143d 9aa7 0fbd 29d0 11bd 6e36 1a3d
00000110: f0ed ac3d 8980 91bd e7f3 4fbd 2288 873e
00000120: 21c5 bf3d 5cd3 edbc fd43 e1bd 6c6d ff3c
00000130: f8d7 d4bd de34 01be 8ad0 e43d f038 6ebc
00000140: e901 50bc 122e bb3d bacb 9e3d 2c9b 02bd
00000150: ac73 eabc 9f51 eb3d 3776 783d 4472 fc3d
00000160: c49b fb3d de38 b93d a37e 69be 05c4 02be
00000170: 3555 80bd 3112 f83d 591f ba3d cc48 c2bd
00000180: b217 413e 3a0e 013e 76aa 26be 29dd 15bd
00000190: 2e88 9d3c 5d95 8cbe 338a b2be c7b9 283d
000001a0: 8d2d c7bd 3acc 0b3d 5861 f03d 229e bebd
000001b0: 2301 933c 947a afbd dc53 eebd 8025 a6bc
000001c0: e5b3 c2bc eae9 cbbd 2ff7 1abe 279e 35be
000001d0: aca1 a9bd 8a4a 883e f306 c73e 683d 483e
000001e0: 764d 693e a8de a33e d027 853d 2c53 a23c
000001f0: ffde 703e e003 fe3c 5573 753e d43c cbbb
00000200: 201b d1bc 5013 943e c7d3 b43d c877 8b3d
00000210: dbc3 3d3e c48f 023e 9a0d 603e 4c70 86ba
00000220: c6d3 b93d 0612 3cbd 8d87 fbbd 868b 38bd
00000230: 5661 803d 9177 3f3c 586a a03d 6b90 2e3d
00000240: 50f4 4c3e e60b 533d cd52 08bc a8ac a63d
00000250: 35c6 ef3d e941 4b3e cb0b 573d d576 bd3d
00000260: 8453 323e 65d4 453e 8bf2 e5bd 2a6d dfbd
00000270: 96c3 973e c6a4 d23d 33dc 723e 21d3 603e
00000280: a94c 0d3e c36e 273d b07b aabd e40c fdbd
00000290: 2228 0abe 49df eebd 92df d0bd 10d7 8d3c
000002a0: b732 4abe 69f6 5a3d 68e6 a3be 4746 c13d
000002b0: 0b38 b73d 3e81 8fbd e6e7 cdbd 720e 303d
000002c0: 8e34 acbc 79b7 56bd c688 b43c 2649 683d
000002d0: b541 c8be cb9f 2fbd 4354 cebd 3df8 a53d
000002e0: 45a5 063d cefa 00bd 0ffd 123e 5444 4b3d
000002f0: 132e 42be e2e6 443d 4ce8 783d 0aaf 1ebb
00000300: 9603 f4bd b56a 483d db16 be3d db49 07be
00000310: fd89 8bbc b009 ac3d ed5c f43c 0f17 57be
00000320: 4e7d 00be 96ef ba3d 06a8 083c b719 03be
00000330: c7db 853e 304e ba3e d805 8abe 1dac 8c3e
00000340: 8459 3c3d fb5a 35bd 90af 4e3e a10f 643d
00000350: 5822 8fbd e7d9 b93d ecb8 4b3d 0f11 073d
00000360: c065 503d 66da 97bd 61c7 50be 607f 443e
00000370: ebaf 213c 8f0c 63bd f456 193e 44de a23d
00000380: e641 313a b4f4 aabd 3a46 c03c 6c00 0c3e
00000390: cd42 97bd 0d87 473d e3e5 fb3d 16bd 12bd
000003a0: a749 f6bb 4e1c dc3d 4294 633e c2e5 803d
000003b0: 3f5e 9bb7 e8b2 513d 6ad9 213d 4efe b83c
000003c0: afc3 5ebd f692 81bd 0dfe df3d 7f78 6abe
000003d0: 6706 ccbe e12e dfbd 7010 16be 88d0 c8be
000003e0: de17 79be cd93 f9bd 2d6e 97be d281 65be
000003f0: 753e 12be 0eff 2bbe b373 59be 5608 4ebd
0.10541577 -0.003330083 -0.03437646 0.030108692 0.0041732085 0.036516022 0.05059328 0.014832049
-0.0013648175 0.09709227 -0.017989693 0.05804489 0.24804032 0.10867283 0.1377557 0.19655533
0.059493694 0.056889575 -0.2464259 -0.012270473 0.26247948 0.027849566 0.108951814 0.2534506
0.24155614 0.22989182 -0.040537093 0.06225132 -0.118389666 -0.09508315 -0.04104496 -0.051251203
-0.2788736 -0.019956617 -0.0559866 -0.17286181 0.10808718 0.09547076 0.064091586 0.042175956
0.080759995 0.09395168 0.03560134 0.07760947 0.20671344 0.07575952 -0.143648 -0.18991213
0.037528735 0.035981588 -0.16815579 0.08620067 0.06299194 -0.08892259 -0.029860623 0.08487236
-0.0225242 -0.20682865 -0.09034173 0.021815155 -0.09973375 -0.06659015 -0.027189745 0.082810886
0.03628466 -0.035071947 -0.035598908 0.037649564 0.084438205 -0.07104594 -0.050769713 0.2647105
0.09363771 -0.029031448 -0.10999296 0.031180106 -0.10392755 -0.12617823 0.11172588 -0.014539942
-0.012695768 0.091396466 0.077537015 -0.031886265 -0.02861961 0.11490177 0.060659613 0.12326482
0.12285569 0.0904405 -0.22802214 -0.12770088 -0.06266252 0.12112845 0.0908801 -0.09486541
0.18856695 0.12603083 -0.16275963 -0.036587868 0.019229975 -0.27457705 -0.34871063 0.041192796
-0.09725485 0.034130313 0.11737317 -0.09307505 0.017944878 -0.08568302 -0.11637089 -0.020281553
-0.023767421 -0.09956725 -0.15133356 -0.17736112 -0.082827896 0.2661937 0.3887249 0.19554675
0.22783455 0.3200581 0.06501734 0.01981505 0.23522566 0.031007707 0.23969777 -0.0062023196
-0.02552563 0.28920984 0.08829456 0.06809956 0.18531744 0.12750155 0.21880189 -0.0010256856
0.09073596 -0.045915626 -0.12281714 -0.045054935 0.06268565 0.011686222 0.078327835 0.042618196
0.20015073 0.05152502 -0.0083205225 0.081384 0.11707727 0.19849361 0.05250148 0.09251181
0.17414671 0.19319303 -0.11227902 -0.10909493 0.29641408 0.10285334 0.23716812 0.2195554
0.13798775 0.040877115 -0.08324373 -0.12355974 -0.13491872 -0.11663682 -0.10198893 0.017314464
-0.19745909 0.05345765 -0.32011724 0.094372325 0.08946236 -0.07007073 -0.10053997 0.042982526
-0.021021154 -0.052421067 0.022037875 0.056710385 -0.3911263 -0.042877 -0.100746654 0.08103988
0.032872457 -0.031489186 0.14354347 0.04962571 -0.18962888 0.04807175 0.06076841 -0.0024213218
-0.119147465 0.04892989 0.09281703 -0.13211767 -0.017033571 0.08400285 0.029829467 -0.2100489
-0.125478 0.09127729 0.008340841 -0.12802778 0.2614424 0.36387777 -0.26957583 0.27475062
0.045983806 -0.04427622 0.2018416 0.055678967 -0.069889724 0.09074765 0.049736902 0.032975253
0.050878286 -0.07414703 -0.20388557 0.19189215 0.009868602 -0.0554319 0.14974576 0.0795255
0.0006761834 -0.08347455 0.023470987 0.13672036 -0.07385788 0.04871278 0.12299707 -0.035824858
-0.0075161043 0.10747586 0.22224525 0.06293823 -1.8521327e-05 0.05119601 0.039513983 0.0225822
-0.054385837 -0.06326859 0.10937128 -0.22897528 -0.39848635 -0.10897613 -0.14654708 -0.39221597
-0.24325511 -0.12186394 -0.29576245 -0.22412804 -0.14281638 -0.16796514 -0.21235542 -0.05030092

bn5.running_mean f4 [45]
00000000: dab8 593f e938 4140 103b 0a40 8423 e33f
00000010: 2a57 8b40 9fc9 dd3e 6587 1c40 63c7 0640
00000020: fe1e 1140 e18b bf3f 544a ae3f c0e6 4840
00000030: 439e 1f3f cfac 6b3f 4811 943f 8b27 1a3f
00000040: 3d77 9d3f 69dc 093e 2607 a640 d346 603f
00000050: d97c 1f3f e955 793f e865 a03f 3e9b 0740
00000060: 2b41 453f a3c7 633f 9311 903f b0a8 383f
00000070: 3228 cf3f e2cc 0240 f6bb 2e3f 6946 2c40
00000080: 6e66 c440 4d15 bc3f 06f3 4e3f 613f d53f
00000090: 6e6f 5a3f d816 403f 2ba6 ba3f 3d3b 953f
000000a0: 3eb0 9e3f fd29 b53f a147 c73f 7b42 0040
000000b0: 6e66 943f
0.85047686 3.0190985 2.159855 1.7745214 4.35439 0.43317887 2.4457638 2.1059196
2.2675166 1.4964563 1.3616433 3.1390839 0.62350863 0.9206056 1.1567774 0.6021659
1.2302014 0.13462986 5.1883726 0.8760807 0.6229988 0.97396713 1.2531099 2.1188502
0.77052563 0.88976496 1.1255363 0.72132397 1.6184142 2.043755 0.68255556 2.6917975
6.1375036 1.4694 0.80839574 1.6659967 0.8532628 0.75034857 1.458196 1.1658703
1.2397535 1.4153439 1.5568734 2.0040576 1.1593759

bn5.running_var f4 [45]
00000000: ef3d 1841 3729 7f42 12ae 4041 9032 1741
00000010: 2bae 5842 e45d 3640 3ae3 1841 5049 4f41
00000020: 44fc 3241 5b7f e540 3891 2641 b444 f941
00000030: 8724 0a40 5655 1741 a141 8041 7452 5940
00000040: a3dc 0941 42a8 d33e de5d 3a42 706a 9040
00000050: 8c6c f93f 5166 9440 99da 6a41 19d3 6e42
00000060: af82 8540 e509 2e41 91b8 a641 6474 4f40
00000070: e645 0341 ec9e bc41 e35f f73f e485 2341
00000080: 976b 8d42 63f2 0a41 1b89 a040 6d59 bd40
00000090: fa6e 8d40 0aa7 f640 38d4 cf40 3703 1e41
000000a0: 51d9 db40 b8fc 6a41 3ef9 e540 d7af 4f41
000000b0: ab9c e840
9.5151205 63.79025 12.042498 9.449844 54.170086 2.8494806 9.555475 12.955399
11.186588 7.1717963 10.410454 31.158546 2.1584795 9.458334 16.032045 3.3956575
8.616366 0.41339308 46.591667 4.512993 1.9486251 4.63749 14.678369 59.70615
4.1722026 10.877416 20.84012 3.241479 8.204565 23.577599 1.9326137 10.220188
70.71014 8.684176 5.0167365 5.917166 4.419797 7.7078905 6.4946556 9.875785
6.870278 14.686699 7.186675 12.98043 7.2691245

conv5.weight f4 [45, 45, 3, 3]
00000000: 8e3a be3d 401f 3ebd ef25 f8bd 75a7 3e3d
00000010: ef9b d7bd 37d4 6ebd c73b 24bd 2849 853d
00000020: 5177 903d 8d8a c53d 7b86 d2be 4f4c c03c
00000030: ed59 f43d 6493 c4be 6064 36bd 7501 5d3e
00000040: 1206 9cbc 2151 13be debf 62be 4402 25be
00000050: c358 593e db32 aa3d 6249 f43d b27e 013e
00000060: 21a4 1f3e d81f 79bc 2192 94bd f3d4 2e3c
00000070: 056e 353a 3cb1 893d 493f 453e d3d8 d03d
00000080: e68f 133a b974 823e 413c e43d 425d 0fbe
00000090: cac6 3fbd dfa7 bc3c 0d43 b33c fd4b 6d3d
000000a0: 6575 a1bc 4127 993d 173b 6cbc 936a 14bd
000000b0: 8fb8 a23d 404c 0ebc bf4d 3a3e 0142 0e3e
000000c0: c3af ccbd 9c36 c63d fbf2 f23d efc1 29be
000000d0: f4d6 db3d 0213 2f3e 9c8c eabd ada4 b7bd
000000e0: 105e 033c 0531 62bd 7f72 0b3d b942 cf3d
000000f0: 781f 24be 6aeb a73d 3b60 233c 8b84 81be
00000100: d221 053e 2a48 c93e fab6 a0be 5339 c13d
00000110: 88b2 8c3e 5abd adbe 31b4 b13d 3c24 623e
00000120: 57a0 4bbe d88c ce3d 4d18 d2bd a3a7 2bbd
00000130: 3ab0 ac3b a32c 573d b681 8e3d 38f3 51bc
00000140: 7991 8c3a 1b78 c0bd 6e36 0fbd ea65 8fbe
00000150: 70dc 06be f5c4 a93d 6f3a 2abe 8fc4 64be
00000160: 5ef7 533d 9dfc 21bc 7001 9b3d c996 58be
00000170: b732 433d ae5a 22bd 8744 d03c ece7 d33d
00000180: b5f8 50be e7fd 373e 7d73 5ebc 1188 30be
00000190: 9748 013e 39e2 053d fea5 0fbe ea0c f33d
000001a0: c6d5 6b3e 0f15 743c 6ba6 4d3d 499f e73e
000001b0: 94ae 743a 7646 21bd 0fcc 9cbd f8c6 393b
000001c0: 0804 e5bc 65e2 1fbd a10c 36bd 363d 11be
000001d0: 2996 5bbc 44ea 833d c1d5 99be a684 8b3d
000001e0: 2cd8 22bd c05b a5be ff97 403e 3d42 06be
000001f0: c233 45be 7f68 0a3e f653 8ebe a985 fdbd
00000200: aa31 c4bd d5d5 29be 29a3 69be 3c8a 32be
00000210: 8a1c 48bd ef51 12be 6498 80bd 90f5 1f3e
00000220: 7b5f f13d c444 b2bd 519c 2fbe b04d 193e
00000230: 9aee 4dbe 1a15 1ebe 7bb9 db3d b003 4cbe
00000240: d1df 8cbe 0424 54bd c108 683d 9a82 61be
00000250: dff3 a1bd f90a c8bc 3805 c1bd f98f b2bd
00000260: 967c 993d 0699 1cbe ab4d 3a3e fb12 6ebd
00000270: cc0d 72be 8fed 883e 3268 e5be 4700 58bd
00000280: 0c77 8f3e 6bff 9dbe 03f3 01bd a299 e53d
00000290: 469b babd 9ba7 9bbd bf5d 553d fa84 4bbe
000002a0: 1d6b 0cbe 8ce8 423d 9080 89be 14a4 4d3d
000002b0: d883 8bbd a9bb d83d ab9f 113d 5a9b 3d3d
000002c0: 390f 803c 5ebd a0bd 0cb1 5fbd 0680 85be
000002d0: fe43 38be 0177 bf3d bb7a 66bc 99ae 45be
000002e0: a8b0 603e 215e c0bd 0b51 2fbe 8fb0 4e3e
000002f0: 55c8 52bd d2f4 9d3d 0f77 4a3d 7dab b0bd
00000300: 67e3 963d d5ad 96bc 9590 d9bc fbbb 0fbd
00000310: ba55 28be 3cda 7dbd b1b8 1dbd 64d1 233d
00000320: a7e0 163e 111a 7bbd ba62 28bd 91ed ae3d
00000330: 6955 fdbd 37d3 c3bd bcfc cc3d dabe d13c
00000340: b230 f83d a139 0b3d 0b54 263e 2f3e fb3c
00000350: 1d08 de3b bdfe d1bc a332 80be 9c16 f8bd
00000360: b0f7 52bd 6a97 a03d acd2 2dbd b960 12bd
00000370: e1ac 113e 3534 03be a990 4abe 67fc 643d
00000380: 1c00 d7bd 52e8 7cbd 2515 d13d 5cde 27be
00000390: ecd3 51bd b3c2 d93d 0e99 48be 3636 1bbe
000003a0: 7e2c 473e cdb0 12bd 8fb0 8a39 9972 253e
000003b0: 61ef 9cbd cb1e 83bd 26de 003d 37d0 29be
000003c0: f77d a13d a198 003d b06a 1e3d ce4e b3bd
000003d0: 29c2 243e c5c5 283e 9020 38bd 25b7 5f3d
000003e0: 703b df3d 1d69 d83d e39c c53d 8d23 813e
000003f0: 0bdf 563c 1f7a f83b 061b 6f3c 4c9a 85bd
0.09288512 -0.04641652 -0.1211661 0.04654642 -0.10527789 -0.058307853 -0.04009607 0.06508094
0.07054008 0.09645567 -0.41118225 0.023473887 0.119312145 -0.383937 -0.04452932 0.21582587
-0.019045863 -0.14386417 -0.22143504 -0.16114146 0.21225266 0.08310481 0.11928059 0.12645987
0.15589954 -0.015205346 -0.072544344 0.010670888 0.0006920996 0.06723258 0.19262423 0.10197606
0.00056290475 0.25479677 0.11144305 -0.14000419 -0.04682044 0.023029266 0.021882558 0.057933796
-0.019709298 0.0747819 -0.014418385 -0.03623445 0.07945358 -0.008685172 0.1819372 0.13892366
-0.099944614 0.09678385 0.11862751 -0.16577886 0.107343584 0.17097095 -0.114526 -0.08966956
0.008018032 -0.05522253 0.03404474 0.10120148 -0.1602763 0.081991985 0.009971674 -0.25296435
0.13001183 0.3931287 -0.313896 0.09434762 0.2747996 -0.33933526 0.08676947 0.22084135
-0.19885384 0.100854576 -0.10258541 -0.041907918 0.0052700313 0.052532803 0.06958334 -0.0128143355
0.0010724507 -0.09397908 -0.034964018 -0.28007442 -0.13170028 0.0828952 -0.16623853 -0.22340606
0.05174958 -0.009886888 0.075686336 -0.2115127 0.047655787 -0.03963726 0.025423301 0.1034697
-0.20407374 0.1796795 -0.013577339 -0.17239405 0.12625347 0.032686446 -0.14028165 0.118676975
0.23030767 0.014897599 0.050207537 0.45238712 0.00093338755 -0.039373837 -0.076561086 0.0028347354
-0.027956024 -0.039034266 -0.044445638 -0.14183506 -0.0134025 0.06441167 -0.30045894 0.0681241
-0.03975694 -0.32296562 0.18807982 -0.13111205 -0.19258025 0.13516425 -0.27798432 -0.12379009
-0.09579785 -0.16585477 -0.22816147 -0.17435545 -0.048855342 -0.14289068 -0.06279066 0.15621018
0.117857896 -0.08704522 -0.17149474 0.14971042 -0.2011055 -0.15437737 0.10728737 -0.19923282
-0.27514508 -0.05179216 0.056648973 -0.22022477 -0.07907843 -0.024419295 -0.094248235 -0.08718867
0.07494466 -0.15292749 0.1819369 -0.05812357 -0.23638076 0.26743743 -0.44806057 -0.05273464
0.28020513 -0.3085893 -0.031725895 0.11210944 -0.09111647 -0.076003276 0.052091356 -0.19874945
-0.13712735 0.047585055 -0.26855898 0.050205305 -0.068122566 0.10582668 0.035552662 0.046290733
0.015632259 -0.07848619 -0.054612204 -0.26074237 -0.17994687 0.0934887 -0.014067347 -0.19304885
0.21942389 -0.09392954 -0.17120759 0.2018454 -0.051460583 0.077127114 0.04942995 -0.08626459
0.07367592 -0.018393436 -0.0265582 -0.03509138 -0.16438952 -0.061975703 -0.038506214 0.039994612
0.14734136 -0.061304156 -0.041109778 0.08541406 -0.12369806 -0.095617704 0.10009143 0.0256037
0.12118663 0.033990506 0.16242997 0.0306693 0.0067758695 -0.025634164 -0.25038633 -0.121136874
-0.051505744 0.0784138 -0.04243724 -0.035736773 0.14226104 -0.12812884 -0.19781746 0.055904772
-0.10498068 -0.061744995 0.10209111 -0.16393417 -0.051227495 0.10632839 -0.19589636 -0.15157399
0.19450566 -0.03581314 0.00026452958 0.16156997 -0.076628454 -0.06402358 0.031461857 -0.16583334
0.07885354 0.03139556 0.038675964 -0.08755265 0.16089691 0.16481693 -0.04495293 0.05461802
0.10900009 0.10566924 0.096490644 0.25222436 0.013114701 0.0075829173 0.014593845 -0.065235704

bn6.running_mean f4 [45]
00000000: e9d8 f23f de01 cb3f a074 3440 65b3 1040
00000010: 7dcb 1040 1c37 0c40 b481 c83f 7e6c 0b40
00000020: 56a4 0b40 8f4f 0040 a032 fc3f b919 e83f
00000030: b904 1340 e3b9 2e40 2c70 cf3f c726 c83f
00000040: cb9e ee3f 80db cd3f f53d 0a40 d3ca 2740
00000050: be39 0040 db03 a140 ce7f 0740 5f9a 1a40
00000060: a016 9e3f a882 fc3f 118b e53f bc3e c23f
00000070: b09b df3f 60bc ac3f 8298 be3f a7a8 0340
00000080: 216b 2240 8edb ca3f 5e2f f23f 0f27 8840
00000090: c71b d93f 9daa ab3f 3161 e33f 615c b93f
000000a0: 7ea3 943f e609 3040 ade5 d33f 4dcd bd3f
000000b0: 4e8a 2140
1.8972446 1.5859945 2.8196182 2.2609494 2.26242 2.1908636 1.5664582 2.1784968
2.1819053 2.0048559 1.970295 1.813285 2.2971632 2.7300956 1.6206107 1.5636834
1.864221 1.6082611 2.1600316 2.6217544 2.0035243 5.0317206 2.1171756 2.415672
1.2350655 1.9727373 1.7933065 1.5175395 1.7469387 1.3494987 1.4890292 2.0571687
2.5377886 1.5848253 1.8920705 4.254768 1.6961602 1.3411442 1.7764035 1.4481317
1.1612394 2.7506042 1.6554466 1.4828278 2.5240664

bn6.running_var f4 [45]
00000000: 18ef 0641 a4f7 2041 9759 1941 95dd 1841
00000010: 3149 ad41 ca09 0c42 f215 7041 1d07 b941
00000020: 31b6 2741 aac1 e441 683d 4d41 2495 e141
00000030: 719f 0741 64e2 4e41 f0f2 a540 696e 2041
00000040: 07cc dc40 bb9d 3b41 70f9 0341 b2f5 7241
00000050: c081 1b41 35da be41 fc5e 0041 28a1 0441
00000060: 6b22 1e41 9421 1141 e3be 4841 ba80 1241
00000070: a894 2541 ff9f 0a41 f473 4141 4710 3941
00000080: 1409 1e41 bd98 6c41 f9b7 1b41 3a4b a941
00000090: 9680 bf41 8ba6 d940 e483 1d41 c16c 2241
000000a0: d5ee 6841 d6f0 0541 1989 1c41 9427 ea40
000000b0: ac2a 3641
8.4333725 10.060459 9.5843725 9.554097 21.660738 35.00956 15.005358 23.128473
10.48198 28.594563 12.827492 28.197823 8.476426 12.930271 5.1859055 10.026956
6.8999057 11.726008 8.248398 15.184984 9.719177 23.856546 8.02319 8.289345
9.883403 9.070698 12.546603 9.156427 10.348793 8.664062 12.090809 11.566474
9.877216 14.78729 9.732415 21.161732 23.937786 6.80158 9.8447 10.151551
14.558309 8.371298 9.783471 7.3173313 11.385418
